dynamic_tsp/drl/tsp/20/12_46_22.667847/actor.pt (torch_old, 732476 bytes, 14 tensors)

static_encoder.conv.weight f4 [128, 2, 1]
000000 0e 91 ab 3d e6 48 fe be 90 94 b0 be fb 88 ca 3e
       0.08377276 -0.49664992 -0.34488344 0.39557633
000010 4f bc b1 3e f3 a1 19 3f 04 89 ad be 16 fc 0c bf
       0.3471398 0.6001274 -0.33893597 -0.5507215
000020 a8 79 08 3f 82 f8 96 bd 9d 9b ca 3e 20 33 06 be
       0.5331063 -0.07371618 0.3957185 -0.1310544
000030 5d 34 ae be b3 9c fb 3c 7e 7f ab bd 83 14 b8 be
       -0.34024325 0.030714368 -0.083739266 -0.3595315
000040 f9 76 17 3e 7d 47 ce 3d e3 58 01 3f 15 06 32 3c
       0.14791478 0.10072229 0.50526255 0.010865708
000050 5f d0 78 bc 4b 9a 83 3e cb f6 9a bc 16 11 84 3e
       -0.015186398 0.25703654 -0.018916508 0.25794286
000060 f8 5d ad be c4 dc ec 3e e3 7e db 3d 56 73 ff bc
       -0.33860755 0.4626218 0.10717561 -0.031182926
000070 5f 53 2b bf 93 f1 20 3e 19 8b da 3e 67 8a 1a 3c
       -0.6692409 0.15717153 0.42684248 0.009432412
000080 d7 95 18 bf 76 40 60 3e 59 95 ee be 54 00 43 bd
       -0.5960364 0.2189959 -0.46598318 -0.047607735
000090 07 35 73 be cd e0 94 be 53 35 85 be 34 6e 24 bf
       -0.23750697 -0.2907776 -0.26017246 -0.64230657
0000a0 f2 b4 c8 3e 6b 04 1f 3f 85 aa ed be 80 5f 0b 3e
       0.3920055 0.62116116 -0.4641916 0.13610649
0000b0 5d 8d ef 3d b6 3b cc bd 76 72 ad bd 61 54 27 3f
       0.11696885 -0.099723265 -0.08469097 0.65363127
0000c0 88 73 19 3f ea cc 6a be 11 bb d1 be c8 50 2e 3e
       0.5994191 -0.22929731 -0.40963033 0.17023003
0000d0 ad c5 01 bf fa 42 3a 3d a0 9b 77 be 8d bc c8 3e
       -0.50692254 0.04547403 -0.2418046 0.39206353
0000e0 90 24 0a 3e a6 13 06 bf 36 a2 19 3e d6 ea e8 3e
       0.1349051 -0.5237373 0.15003285 0.45491666
0000f0 3f 9a cc 3a 4a af 63 be 8a 8b 15 bf 59 b6 3b 3e
       0.0015609934 -0.22234836 -0.58416045 0.18331279
000100 b2 b6 84 3e a9 3e aa 3e 28 99 02 3f 8d 8d d3 be
       0.25920635 0.3325093 0.5101495 -0.41318932
000110 51 da 4b 3c af 50 11 3f 91 23 8c 3e e5 ea 00 bf
       0.012442187 0.5676374 0.27370885 -0.5035842
000120 fb 1c 6f 3e 45 ce 26 3f 40 00 87 bd af dd 20 3f
       0.23350899 0.6515849 -0.065918446 0.6283826
000130 64 91 56 3e 92 6a 57 3a 4e 1a cd 3e 32 62 33 be
       0.209539 0.00082174793 0.4005913 -0.17517927
000140 90 cb ec be 34 a5 dd 3e 31 71 f8 3e e8 91 41 3e
       -0.46249056 0.43290102 0.48523858 0.18903315
000150 59 24 99 be 98 48 41 bd f0 d6 b0 bd 0e 0d 8c 3e
       -0.29910544 -0.04718837 -0.08634746 0.2735371
000160 81 65 41 3e f7 8b 58 3e 37 b9 e3 3e c6 09 2b be
       0.18886377 0.21147142 0.44477245 -0.16702947
000170 bb f8 48 3e 1a 3e f2 3e 59 75 96 3e f6 5a bb be
       0.19626133 0.47313005 0.29386404 -0.36592835
000180 63 8e 2e 3e 63 28 16 bf f5 71 df bd 69 f2 f7 3e
       0.17046504 -0.58655375 -0.109104075 0.48427132
000190 9f 56 04 3f fe 7f c5 be 41 fa 53 be 8e 7c e1 3d
       0.51694673 -0.38574213 -0.20700933 0.11010085
0001a0 97 cc c0 3d 8f e5 17 3f 2f 1d f2 bd c9 a0 ee 3e
       0.094140224 0.59334654 -0.118219726 0.46607044
0001b0 76 db 0a be 0e a3 1b bf 7d fd 62 3e 99 a2 18 3f
       -0.1356028 -0.60795677 0.2216701 0.59623104
0001c0 7c 11 80 3d 28 0e 1e 3f 81 a9 b0 3d 50 e0 0b bf
       0.06253335 0.6174035 0.0862608 -0.5463915
0001d0 ce e9 82 3e e4 12 39 3f ea 82 86 3e 1b 5a 0b bf
       0.25569004 0.7229445 0.26271755 -0.54434365
0001e0 22 37 ab 3d 7e fb d4 3e 66 95 17 be 3a df 58 3e
       0.08360125 0.41598123 -0.14803085 0.21178904
0001f0 3a 08 fb bc 58 6f f8 be 5f 49 c1 3e 1a 98 eb be
       -0.030643571 -0.4852245 0.3775129 -0.46014482
000200 4e f0 8d 3e fe b2 3e bd c4 ae b7 3e 6f 89 3c 3f
       0.277224 -0.04655742 0.35875523 0.7364721
000210 9f 86 60 3e 28 fc 16 3e 68 ff 98 be 04 2b 2d bf
       0.21926354 0.14744627 -0.2988236 -0.6764376
000220 a2 65 4a be e4 e8 ec 3e f0 e2 c8 3d da 31 b8 3d
       -0.19765332 0.4627143 0.0980891 0.089938834
000230 3f 64 38 3e b4 da 00 bf 77 af 0d 3e 89 88 24 bf
       0.18006991 -0.50333714 0.13836466 -0.64270836
000240 82 77 e0 3d 89 83 07 bf 1e c9 9e be 7a dd fa be
       0.10960294 -0.5293508 -0.31012815 -0.48997098
000250 67 a4 b7 3e 23 d5 c0 3d e0 c4 98 bd 9a 63 e3 3e
       0.35867617 0.094156526 -0.07459426 0.44411927
000260 c2 73 80 be cc 33 d2 3e 9e 26 e1 3d cb 6e 24 3f
       -0.25088316 0.41055143 0.10993694 0.64231557
000270 05 1d b3 bc 1e 2f f7 be df 3c ee 3e be f2 99 be
       -0.021864424 -0.48278135 0.46530816 -0.3006801
000280 d2 47 0f bd e1 7f 50 3e da 9a 95 3e bb 02 2f 3f
       -0.034980603 0.20361282 0.29219705 0.6836354
000290 72 62 82 3e 44 46 1e 3f d4 56 aa be 5a 4c 04 bf
       0.25465733 0.61825967 -0.3326937 -0.51679003
0002a0 0f 17 2a 3f ca dc dc bc ac a6 08 3e 14 da 06 bf
       0.66441435 -0.02696075 0.1334483 -0.5267651
0002b0 ee 0b 74 bc e4 58 7e 3e 68 b7 af 3d f5 ed 0c bf
       -0.014895422 0.24838597 0.08579904 -0.55050594
0002c0 7e df 37 3e 6b a4 be 3e 07 81 6b 3e 42 11 10 bf
       0.17956349 0.37234816 0.22998439 -0.56276333
0002d0 71 5f 48 be 40 9b 67 be f0 31 7c be cc bc b0 be
       -0.19567658 -0.22617817 -0.24628425 -0.3451904
0002e0 11 68 33 3e 60 cc 0b bf 0a 24 8b bd 37 91 f2 3e
       0.17520167 -0.54608727 -0.06793983 0.47376415
0002f0 2f ba ee bd 9e d6 04 3f b7 8f fa 3c df cc 19 bf
       -0.116566055 0.5188998 0.030586107 -0.60078233
000300 40 8a 02 bf 4c 2a 53 bd 69 aa d8 be 5e 7f d9 3e
       -0.509922 -0.05155401 -0.42317513 0.42479986
000310 35 46 12 bf 3b 39 28 3e 28 e6 92 3e 6c 9d 68 3e
       -0.5713838 0.16428082 0.2869122 0.22716302
000320 7b 99 a8 3e 7a f6 ee be 7e b0 01 bf 60 ba 87 3e
       0.32929596 -0.46672422 -0.5065993 0.2650938
000330 b6 b5 e3 be 8a a8 88 3d a6 24 22 bf 43 d3 63 3d
       -0.44474572 0.06672771 -0.6333717 0.055621397
000340 b7 4c 10 bf e2 08 9b 3e 8b 7f d3 3e b8 0f e5 be
       -0.5636706 0.30280215 0.41308245 -0.44738555
000350 1a bd e6 be 50 48 c7 3e 5a da b5 3a 0d 28 99 3e
       -0.45066148 0.38922358 0.0013874278 0.2991337
000360 26 dc 17 be d7 05 1c bf 1d 5c f0 be 56 bb 4e 3e
       -0.14830074 -0.6094641 -0.46945277 0.2018865
000370 1c d6 d9 bc 4d 7f 13 3f c5 5a df 3e f5 03 89 be
       -0.026591353 0.5761612 0.4362394 -0.2676083
000380 df 09 36 be 66 da f3 3e a5 94 17 be 8a 63 2f bf
       -0.17777203 0.47627562 -0.14802797 -0.6851126
000390 6a 56 0a 3d 0d a9 f0 be ed 56 d9 be ad b8 d0 3b
       0.033773817 -0.47003976 -0.42449132 0.0063696713
0003a0 a0 51 a1 be 5c 1d 06 bf e0 bf 95 3e d3 14 d0 be
       -0.31507587 -0.5238855 0.29247952 -0.40640888
0003b0 a9 0b c9 bc 52 5c 72 be c5 16 37 bf 7f 6c 53 3d
       -0.024541693 -0.2366803 -0.7151912 0.05161714
0003c0 cb 6c 7f 3d bf ae fc 3e e7 9e f7 3e ff 54 63 be
       0.062359612 0.4935207 0.4836342 -0.22200392
0003d0 f7 27 f0 3d 4c 9a bf 3e 53 34 07 bf b0 df a3 be
       0.11726373 0.37422407 -0.52814215 -0.32006598
0003e0 04 00 87 bd 23 0f c3 3d e0 b5 69 3d 4a 26 d0 3e
       -0.065918 0.095243715 0.057058215 0.40654212
0003f0 1e 0e ad 3e a4 f5 b5 be ae b8 ab be ab 8b d9 3e
       0.33799833 -0.3553897 -0.33539337 0.4248937

static_encoder.conv.bias f4 [128]
000000 75 c0 6e 3e 8c 99 96 bd 02 3e 68 be ea a6 9a 3e
       0.23315604 -0.073535055 -0.22679904 0.3020547
000010 41 04 6f be 36 61 95 bd 9e 87 80 3e 4a b7 43 3d
       -0.23341466 -0.07293932 0.25103468 0.04778222
000020 38 bc 33 3c 08 ab 06 be 0a 0a 8a 3d be a8 bb bd
       0.010970168 -0.1315118 0.06740196 -0.091630444
000030 a8 9e 58 be 24 2e e9 bd 38 01 78 3e 5f 67 55 be
       -0.21154273 -0.11385754 0.24219215 -0.20840214
000040 c6 c3 68 3d f3 06 90 3e ae e7 fc 3d 8c 1b 99 3e
       0.05682733 0.28130302 0.12348877 0.2990383
000050 72 a4 c3 be 78 82 8d 3e a3 da 81 bd 13 99 27 be
       -0.382114 0.27638602 -0.0634053 -0.16366987
000060 8d fc 3b be 70 4d 72 3d e2 36 1b 3e b2 8a 86 be
       -0.18358059 0.05915588 0.15157655 -0.2627769
000070 a1 8f 20 3e 0f b2 b8 be d3 58 b7 bd a4 d4 76 3e
       0.1567979 -0.36073348 -0.08952489 0.24104553
000080 fe 4c 8c bd 90 92 b0 3b 4b 76 24 be 57 ba 14 3e
       -0.068506226 0.0053885654 -0.1606075 0.14524208
000090 cc da f8 be f3 71 15 be d0 b4 2f 3d f1 29 00 be
       -0.4860443 -0.1459425 0.042897046 -0.12516
0000a0 de ec 1f be 47 02 63 be cf 4a 7b 3e f7 ef 13 bd
       -0.15617701 -0.22168837 0.24540256 -0.03611752
0000b0 aa 48 bb bd cc 91 61 bd d0 2c 4c be 20 27 53 3e
       -0.09144719 -0.055070683 -0.1993897 0.20620394
0000c0 e4 6e 80 3e 1e 91 6a be 3d 04 4f bc 3d d9 78 3e
       0.25084603 -0.2290692 -0.012635288 0.2430162
0000d0 32 1f 31 be 5d ed a3 be 79 d5 c3 3e fa b2 3a be
       -0.17297056 -0.3201703 0.38248804 -0.18232337
0000e0 47 e5 2d be 63 03 8f 3e ae af cb be 2e b2 81 3e
       -0.16981994 0.2793227 -0.3978247 0.25331253
0000f0 7a eb 1f be ec e4 ba 3d 9f 0e 94 3e 52 b4 b4 3d
       -0.15617171 0.09125695 0.28917405 0.08823456
000100 9d 37 77 bd ea ac c6 be 5b 62 27 be 2d a8 70 3e
       -0.06035577 -0.38803798 -0.16346113 0.23501654
000110 86 cb c0 be 6d 19 40 3e 0b 89 c1 3e 13 e2 2e 3e
       -0.37655276 0.18759699 0.37799868 0.17078428
000120 05 70 85 3e 30 42 84 3e 70 d1 27 be 75 fe 90 be
       0.26062027 0.25831747 -0.16388488 -0.28319135
000130 d0 57 2e be d6 0c 83 be ab 1d a0 3e 0d bc cf 3d
       -0.17025685 -0.2559573 0.31272635 0.1014329
000140 99 92 24 3e c4 03 07 bf 3c b8 ed be 37 48 44 3e
       0.16071548 -0.5274012 -0.46429622 0.19168173
000150 9b 08 8a be b7 6e 7b 3e 26 24 96 3c b6 a7 c4 3e
       -0.2695969 0.24553953 0.018327784 0.38409203
000160 72 fa 82 bd ef 8d 21 3e 5a 23 90 3c 4b e5 5b 3d
       -0.06395425 0.157768 0.017594982 0.053685468
000170 c6 e7 9a 3e 58 fd 80 be 0e 67 c8 be ce bf 87 3e
       0.30254954 -0.25193286 -0.39141124 0.26513523
000180 91 d9 46 3e b4 41 2e be 37 e0 a9 3d 4e ae 5b be
       0.19418932 -0.17017251 0.08294719 -0.2145321
000190 e8 f9 43 3e 0b b0 c2 3c a9 c8 49 3e 95 8a 3d 3e
       0.191383 0.023765584 0.19705452 0.18509896
0001a0 a7 e2 00 3e de 6e bb 3d 5c ce 68 bd 6e a6 ca bd
       0.12586461 0.091520056 -0.056837425 -0.09895025
0001b0 ce df 2e 3e 35 b6 88 3d e7 bb cc be 73 13 bd 3d
       0.17077562 0.06675378 -0.39987108 0.09232225
0001c0 83 cd 09 be 10 d3 4d 3e 92 4e 86 3e 34 b9 0d 3e
       -0.13457303 0.20100045 0.2623182 0.1384018
0001d0 fc 7a 3f 3e 41 d5 55 3e c7 8b 46 be 82 3b 98 3e
       0.18699259 0.20882131 -0.19389258 0.297329
0001e0 99 e5 ad be ab 55 2c be 17 b3 a5 bd fb bb a2 3e
       -0.33964232 -0.16829555 -0.08090799 0.31784043
0001f0 a6 b4 f4 3d 1b f5 74 be 5a fd 56 3e fa a9 ad bd
       0.119485185 -0.23921625 0.20995083 -0.08479686

dynamic_encoder.conv.weight f4 [128, 3, 1]
000000 93 5d 67 3e 60 2a b6 bd d3 31 a6 3e 0f 15 a3 3e
       0.2259429 -0.08894801 0.32459888 0.31852004
000010 38 0c ff 3d a4 04 76 3e e7 a5 85 3e cb d7 c7 3d
       0.124535024 0.24025208 0.26103136 0.09757956
000020 81 97 1d 3e 63 68 81 be 55 17 d6 bd 0a db 1f be
       0.15389825 -0.25274953 -0.10453669 -0.156109
000030 05 2e 66 be 45 e8 b6 3d 72 c0 49 be a2 c9 36 be
       -0.22478493 0.08931021 -0.19702318 -0.17850354
000040 a6 4e 03 3e e2 f7 87 3e 09 4d 9e be 8d da 30 bc
       0.12822971 0.26556307 -0.30918148 -0.010794294
000050 15 94 98 be 9f 96 bb 3d 53 39 03 be 45 cb af bd
       -0.29800478 0.09159588 -0.12814836 -0.085836925
000060 57 c6 c5 be 8a 8d b2 bd 09 f3 9a be 8f 7d a1 be
       -0.38627884 -0.08718403 -0.30263546 -0.31541106
000070 5a 83 7a bd 14 0e 50 be 2f b0 7b bd ed 17 12 be
       -0.061160423 -0.2031787 -0.06144732 -0.1426694
000080 d7 39 82 3e da 8c 85 3e 7d 74 34 be 3c b0 78 3e
       0.25434753 0.26084024 -0.17622562 0.24285978
000090 b8 e5 a9 be fe 89 68 bd 95 88 33 bd ad c9 11 3c
       -0.33183074 -0.056772225 -0.043831427 0.008898181
0000a0 81 be c6 bd 94 67 08 3e 7a 27 92 be ad 11 df bc
       -0.097043045 0.13320762 -0.28545743 -0.027230108
0000b0 68 81 8f 3d 1f 1a a1 3e 6f 1f c7 be 8e 89 0e 3e
       0.07007104 0.3146524 -0.3889117 0.1391966
0000c0 ca 04 71 be 92 39 2b be 63 86 3c be ed a2 de 3b
       -0.23536983 -0.1672118 -0.1841064 0.0067943246
0000d0 30 0f ff 3d dc 8c 49 3d 29 54 e4 be 45 5f 9b 3c
       0.12454069 0.0492066 -0.4459546 0.018966326
0000e0 bf 94 35 bc 8a b7 0e bd 1c 11 5d be 20 d4 b9 bd
       -0.011082827 -0.034843005 -0.21588558 -0.09073663
0000f0 42 52 d9 ba 26 1a dc 3d 9a 32 8a 3e 32 e5 be be
       -0.0016580301 0.10747175 0.2699173 -0.37284237
000100 7a 51 76 3d 68 15 e3 bd 3f cf 4b 3e c4 e8 84 3d
       0.060136296 -0.11088067 0.19903277 0.06489709
000110 b9 84 24 3e f2 97 b6 be 4a 85 80 3e 20 2e b2 bd
       0.16066255 -0.356628 0.2510169 -0.08700204
000120 09 f9 5b 3e b2 72 77 3d 57 e4 e4 3d 3f d6 c9 be
       0.21481718 0.060412116 0.11176365 -0.3942127
000130 0f 9a 4b 3e b5 b6 9b 3d a7 0f 33 3e da c8 27 3e
       0.19882987 0.07603208 0.1748644 0.16385213
000140 fb c8 2b 3e 32 8c bc bd 5c 95 14 be f3 3b b8 bd
       0.16775887 -0.09206428 -0.14510101 -0.089958094
000150 a2 f8 1e bd 70 7d 84 bd 6f 60 85 be 18 d7 b0 3d
       -0.038811333 -0.06469238 -0.26050135 0.08634776
000160 1f 0f b4 3c d9 39 8f be 92 26 6e be 07 dc 25 3e
       0.021979867 -0.27973822 -0.23256901 0.16197215
000170 49 e7 0b be a7 e3 89 be b9 dc df 3c 3c 30 90 be
       -0.13662447 -0.26931497 0.027326928 -0.281618
000180 f1 5e 8a be 47 74 47 bd e8 69 86 bd 7c c6 26 be
       -0.2702556 -0.048694875 -0.06563169 -0.16286653
000190 5b a7 32 bc 68 7f 0a be 68 9f b4 be 0c a1 ff bd
       -0.010904158 -0.13525164 -0.35277867 -0.12481889
0001a0 2b 78 7d be 62 70 81 bc f7 c3 e2 3d 6f 3b 79 3e
       -0.24752872 -0.015800659 0.110725336 0.24339078
0001b0 ad 68 49 be ea 74 92 bc 32 9a 73 3e 63 70 2f be
       -0.19668837 -0.017878015 0.2378929 -0.17132716
0001c0 6d 6f b8 3d af e7 75 3e f7 3e 56 3e 31 2a 89 3d
       0.09005628 0.24014162 0.20922457 0.066975005
0001d0 d6 ff 3f 3e 29 45 a7 be a3 80 0e 3e 5d a7 bd 3c
       0.18749937 -0.32669953 0.13916259 0.023151094
0001e0 c2 b5 5d be 8d 4f 80 bd f1 8b 5f bc b5 99 79 be
       -0.21651366 -0.06265173 -0.0136442045 -0.24375041
0001f0 2c 84 cf bd 36 ab dc bd 01 ba d3 3e ab 56 92 bd
       -0.10132632 -0.107748434 0.41352847 -0.07145437
000200 11 80 58 ba 59 b4 4e 3e e5 7e cc bb 35 a3 d2 3d
       -0.00082588295 0.20185985 -0.006240713 0.102850355
000210 89 11 52 3d bc 34 62 be d1 4d fc 3d 10 35 e1 bd
       0.051286254 -0.22090429 0.1231953 -0.10996449
000220 03 9a 13 bd af 1e 2a be df ce 33 be 21 94 23 bd
       -0.03603555 -0.16613267 -0.17559384 -0.03993619
000230 ca 4a 98 bd af 32 90 3d a0 f2 12 3d ae 03 97 3d
       -0.0743614 0.07040917 0.035875916 0.07373749
000240 ef 4a d8 3e b2 8d 9f bd 70 f3 8c bc 98 7e 46 3e
       0.4224467 -0.07790698 -0.017205924 0.19384229
000250 15 9a 54 be 86 02 73 3e 7b a5 46 3e 88 5a 72 3d
       -0.20761903 0.23731431 0.19399063 0.05916837
000260 26 28 99 3d a4 8a 71 3e cd c9 53 bc 33 1d a2 3e
       0.07478361 0.23588043 -0.012926531 0.31662902
000270 2e 9e e3 3b ce 47 16 bd bc f2 5e be 37 4c 27 be
       0.0069463467 -0.036689572 -0.21772283 -0.16337667
000280 ed 79 ad bd 50 b8 8b 3e 3d 9d c5 bd 67 c1 2d bd
       -0.08470521 0.27289057 -0.096491314 -0.04242077
000290 cd ab 77 3b 7a 69 e7 bb 05 ac 86 3e 1b da 52 be
       0.003779161 -0.0070621343 0.26303115 -0.20591013
0002a0 9b bf 8b 3e 7a bf bd bc b6 d3 6b 3e 95 de dd 3d
       0.2729462 -0.023162592 0.2302998 0.1083347
0002b0 b8 03 24 be c3 86 62 be 6c 72 bd 3d 75 dc 6a 3a
       -0.16017044 -0.2212172 0.0925034 0.0008959242
0002c0 d7 44 fe bd 50 d6 ad be b3 9a 0d 3d 84 73 01 bd
       -0.12415474 -0.3395257 0.03457136 -0.031604305
0002d0 68 19 b8 3e f4 32 09 be ed a2 3e bc ce 8c 70 3e
       0.35956883 -0.13398343 -0.011635524 0.23491213
0002e0 a4 ef 56 3e 4c b8 b5 bd 64 69 dd bd 28 d6 db bc
       0.20989853 -0.088730425 -0.10811117 -0.026835516
0002f0 51 c9 99 be 0b 81 0f be ad 79 3a 3e 88 ba 6a be
       -0.30036405 -0.1401407 0.18210478 -0.22922719
000300 b8 81 58 3e 1e e4 6e bc 47 a9 91 3e 67 85 9b be
       0.21143234 -0.014580755 0.2844946 -0.30375215
000310 30 a6 62 be 06 10 79 be c4 72 5b 3e f1 75 1c 3e
       -0.22133708 -0.24322519 0.21430498 0.15279366
000320 ab 07 4c 3e be e8 a1 3e a9 f0 6a bd 8d 8e ae 3d
       0.199248 0.3162288 -0.057358418 0.08523283
000330 e6 13 ca 3d 33 19 88 be 7d 3f e5 3b 11 f2 92 3e
       0.098670766 -0.26581725 0.006996094 0.28700307
000340 5a 3d fa 3d 1c 44 89 3e 9a 07 71 3e 6d b0 c3 bd
       0.12218733 0.26809776 0.23538056 -0.09555135
000350 49 44 32 3e f3 ee 70 be 07 c7 99 3d 1c db 00 be
       0.17408861 -0.23528652 0.075086646 -0.12583584
000360 30 ab 65 be c0 09 62 be 6b d0 12 3e ca d8 4c 3d
       -0.22428584 -0.22074032 0.14337318 0.050011434
000370 37 f1 f3 39 80 da 7b 3e e0 37 94 be 9c 49 db bc
       0.0004652829 0.2459507 -0.2894888 -0.026768498
000380 99 71 58 be d9 9d d0 be 1e cf 40 3e 3d 48 a0 3d
       -0.21137084 -0.40745428 0.18829009 0.07826278
000390 cd bc 04 be d3 12 21 be 63 a5 0c be ae 64 fb bd
       -0.12962647 -0.15729837 -0.13734965 -0.122750625
0003a0 74 8e a8 bd 23 a4 b5 bd 3a c8 73 be 9c 40 24 bd
       -0.08230296 -0.08869197 -0.23806849 -0.04010068
0003b0 38 7f ed bd 73 4d 03 be 97 c1 0b 3e d8 5c 80 be
       -0.11596531 -0.12822513 0.13648067 -0.25070834
0003c0 25 63 93 be b1 ea 9b 3e f4 0e 59 bd 52 01 89 3e
       -0.2878658 0.30452493 -0.052992776 0.2675882
0003d0 00 4d a7 bc 31 2e 01 3e 76 ea a1 3e 9e 45 6e 3d
       -0.020422459 0.12615277 0.31624192 0.05817186
0003e0 67 73 9a 3e 38 cb e7 bc 64 ff 0f be eb 87 3c 3e
       0.3016617 -0.028295144 -0.14062268 0.18411224
0003f0 72 b6 2a be c7 5b 26 3d 07 da f7 bd 15 cd 5f be
       -0.1667116 0.04061487 -0.12102132 -0.21855576

dynamic_encoder.conv.bias f4 [128]
000000 e4 c0 9f be ae 25 a8 be 1e d1 6d be 34 cc 5e 3e
       -0.3120185 -0.32841247 -0.23224303 0.21757585
000010 bb b8 ef 3d 46 54 8a be 77 8b 9d 3e 24 3e 46 3e
       0.117051564 -0.2701742 0.30770466 0.19359642
000020 c4 9b d8 3e f5 00 8d 3e 4c 08 88 be 0a b6 0b be
       0.4230634 0.27539793 -0.2656883 -0.13643661
000030 a5 ed 32 3e e5 e0 97 bd 60 e1 20 3d 0d 11 67 3e
       0.17473467 -0.07415942 0.039277434 0.22565098
000040 9e 5e 93 3e f9 1f ef bd 87 87 70 3b 01 1f 5d 3e
       0.28783125 -0.1167602 0.0036701874 0.21593858
000050 46 73 a2 be 21 2f 45 3d de 6e 33 be 35 1d 03 be
       -0.31728572 0.04814065 -0.17522761 -0.1280411
000060 be 43 16 be 6c c4 4f be fc 65 78 be a2 46 21 3e
       -0.14674279 -0.20289773 -0.24257654 0.157496
000070 19 1d a2 3e 75 d7 c6 3e f4 69 7e bd c9 a1 86 3e
       0.31662825 0.38836256 -0.062112764 0.26295307
000080 c4 0d 0d 3e 78 d8 ec 3d 96 fa c5 3e b2 5a 8a be
       0.13774782 0.11564726 0.38667744 -0.2702232
000090 06 39 82 be 62 48 51 be 05 bc 45 be a9 e4 da bd
       -0.2543413 -0.20437768 -0.19310005 -0.10688145
0000a0 4d 49 ab 3d a4 b2 4d 3e 41 88 ff ba c4 7f a1 bd
       0.083635904 0.20087677 -0.0019495563 -0.078856975
0000b0 0a b0 89 3d ad 5c 23 3e 13 89 b4 3d 3c a9 b9 bd
       0.0672303 0.15953322 0.08815207 -0.09065482
0000c0 97 c9 4d 3c 35 82 d2 bd d9 8f d4 bd 67 3f a6 be
       0.01256027 -0.10278741 -0.10378999 -0.32470247
0000d0 82 c1 06 3e b4 a5 a7 be 0c 9e 6c 3c d6 a4 ff bd
       0.13159755 -0.3274361 0.014441978 -0.12482612
0000e0 ed 62 54 be 95 2a 8d 3e 67 60 07 3e f5 e7 1f 3b
       -0.20740862 0.2757155 0.13220368 0.0024399732
0000f0 03 b6 d7 3d 33 2e 28 be d8 b8 c1 3e aa 73 ae 3d
       0.10532763 -0.16423874 0.37836337 0.08518155
000100 8b af 48 be 4d 9a ca 3e 75 9b cf be 5a 88 d6 bc
       -0.19598214 0.39570847 -0.40548292 -0.026188064
000110 8c 8f 52 3e bc 71 a9 be 2e 97 e0 bd 5a ef 89 3b
       0.20562571 -0.33094585 -0.10966335 0.004209441
000120 59 13 11 3e 3b 69 8b be 39 a0 5f 3e 45 72 44 be
       0.14167537 -0.27228722 0.21838464 -0.19184215
000130 01 97 52 3e b6 f5 fa 3d 1a 87 1b 3e d9 0a e6 3d
       0.20565416 0.12253897 0.15188256 0.11232538
000140 4f de 50 be fc a4 ee bd 54 b1 b5 be 47 33 31 be
       -0.20397304 -0.11652562 -0.35486853 -0.17304717
000150 d4 8d e0 3c 61 16 84 3e a1 f6 2d bd 11 2d 60 bc
       0.027411379 0.25798324 -0.04247153 -0.01368262
000160 a7 c7 a6 be 4f 1f 56 3e a4 64 cf 3e ee a1 78 3e
       -0.32574198 0.20910381 0.4050647 0.24280521
000170 77 2a c1 be 9a aa cd 3e ee 8c 2a be 28 fa 1e be
       -0.3772771 0.4016922 -0.16655323 -0.15525115
000180 26 6d 1b be b7 59 52 3e cc 65 78 be f9 47 a7 be
       -0.15178356 0.20542036 -0.24257582 -0.32672098
000190 2a 69 9a 3e 2a 63 81 3e 03 4d 99 be 50 6c 6e be
       0.3015836 0.2527097 -0.29941568 -0.23283505
0001a0 82 1b 77 bd 72 42 c2 be a7 57 c4 be 5a 18 64 3e
       -0.060328968 -0.3794132 -0.38348123 0.22274914
0001b0 4d a9 dd 3d 31 72 49 bd 4b a6 4a 3e 0a 01 79 be
       0.10823307 -0.049181167 0.19789998 -0.24316803
0001c0 44 35 19 be 95 14 ee 3d fe 7b 7d bc fc 56 14 be
       -0.14961725 0.116250195 -0.015471457 -0.14486307
0001d0 f7 d5 85 3e d5 61 de bd 6b f3 1f be 84 42 48 3e
       0.26139805 -0.10858504 -0.156202 0.19556624
0001e0 9b 8f ca 3d 46 9e 47 be 16 98 cd 3e 79 2c 04 3e
       0.09890672 -0.1949397 0.40155095 0.1290759
0001f0 97 13 a4 3e a9 96 b0 bd c6 e4 3a be 0e 56 87 3e
       0.32046196 -0.08622486 -0.18251333 0.26432842

decoder.conv.weight f4 [128, 2, 1]
000000 05 89 f1 be e0 07 98 3e d5 cb 42 3e 22 f8 04 bf
       -0.4717485 0.29693508 0.19023068 -0.5194112
000010 d1 c2 09 3e b9 86 c2 3e 46 ec ae be 7c 8e 9d be
       0.13453223 0.3799341 -0.34164637 -0.3077277
000020 aa 4c af 3e 16 6a 9a 3e 74 3b 7f be b5 3f bf 3e
       0.34238178 0.30159062 -0.24925023 0.37353292
000030 ce 84 d2 bd 59 09 d7 be a8 43 33 be 6f 2b de 3e
       -0.10279237 -0.4199932 -0.17506278 0.43392512
000040 cc ec 3c 3e b2 8f dd 3e 52 e3 83 be 20 90 6e be
       0.18449706 0.43273693 -0.2575937 -0.23297167
000050 a1 ad fc 3a 9e ee 1f bf 9e 50 01 bf 34 78 2e 3e
       0.001927782 -0.62473476 -0.5051364 0.17038041
000060 47 74 14 bf 00 6e 17 3e d3 0e 4e be f7 5e 42 be
       -0.57989925 0.14788055 -0.20122842 -0.18981539
000070 7b 70 f4 be db 30 07 be f9 2d 7f 3c 66 0c 09 bf
       -0.47742066 -0.1320223 0.015574926 -0.53534544
000080 9f c5 f1 3d 9e ac 5e 3e 07 9c 88 3e 69 dc e4 3e
       0.11805271 0.21745536 0.2668154 0.4469941
000090 4e 85 5b 3e e3 08 c4 bd b7 d7 1f bd 4f 95 cc be
       0.2143757 -0.095720075 -0.03902408 -0.39957663
0000a0 e3 cf a9 be a5 77 4b 3e 8a e6 19 be ac 11 eb be
       -0.33166417 0.1986986 -0.1502935 -0.4591192
0000b0 76 57 ab 3e 0b 95 be bd c8 0c b6 bd 41 fa e6 3e
       0.33465165 -0.093057714 -0.088891566 0.45112804
0000c0 f5 86 f4 bc 0d fc 92 be 06 ea db 3d e9 e8 fc 3e
       -0.029849509 -0.28707924 0.10737996 0.49396446
0000d0 7c ac 4c bd 3e 4c 73 3e 33 ec a5 bd d6 ab d4 3e
       -0.04996918 0.23759553 -0.08101692 0.4153735
0000e0 fc 73 3b be b2 84 17 3f 33 e3 93 be 63 8e a2 be
       -0.18305963 0.5918685 -0.28884277 -0.31749257
0000f0 51 b8 87 3e d3 20 12 bf 9f 44 0f be be 26 dc 3e
       0.2650781 -0.57081336 -0.1399102 0.42998308
000100 5e bb 55 3e aa 86 11 bf 34 41 f6 be 20 c7 88 be
       0.20872256 -0.56846106 -0.4809662 -0.2671442
000110 ee 79 80 3e 99 5b c5 3e 8f 79 e7 bd 29 41 c2 3e
       0.25093025 0.38546446 -0.11302482 0.37940338
000120 13 43 ca bc 42 5c df 3e 3b 23 ae 3e 83 dd 84 bd
       -0.024690187 0.43625075 0.34011254 -0.064875625
000130 c4 08 b9 be 8c ea a9 bd 5e e8 8d be 6f 1d c9 be
       -0.361395 -0.082966894 -0.27716345 -0.3928027
000140 42 59 5f 3e c0 9b b3 be 75 21 03 bf fd 16 ac bb
       0.21811393 -0.35079765 -0.51222926 -0.005251764
000150 4f 63 a6 3b ac 2f 64 3e 78 6b aa 3d ed c5 0f bf
       0.0050777565 0.2228381 0.08321279 -0.56161386
000160 33 c3 c2 be 22 50 87 be 23 1d af 3d 45 d8 3e 3e
       -0.3803955 -0.26428324 0.08550479 0.18637188
000170 6f 93 00 bf b6 91 f7 3b 9f 1c da 3d 9a 67 df 3d
       -0.50224966 0.007555212 0.1064999 0.10908432
000180 fc 1a 92 3e ca e1 e4 3e e9 e1 d6 be 68 d8 da 3e
       0.28536212 0.44703513 -0.4196923 0.4274323
000190 85 3c d7 3e c2 d8 e3 be 40 eb 97 3e 0d ea 41 be
       0.4203836 -0.4450131 0.2967167 -0.1893694
0001a0 67 b4 84 3e 69 5c d0 3e 81 9c 00 3e ed 8a 02 3f
       0.25918886 0.40695503 0.12559702 0.50993234
0001b0 f3 c4 1f be f7 ab 96 3e 45 34 ec 3e 56 ff 9d 3e
       -0.15602474 0.29428074 0.46133628 0.30858868
0001c0 aa aa 0d 3d 50 e6 43 be 17 2c 40 3e 24 a8 d2 3e
       0.034586586 -0.19130826 0.18766819 0.41143906
0001d0 76 a7 91 be 31 66 92 be e9 67 e3 bc 77 57 06 3f
       -0.28448075 -0.2859359 -0.02775951 0.5247721
0001e0 af 62 f0 bb 26 16 04 3f db b1 1d be c1 ef 84 be
       -0.0073359828 0.51596296 -0.15399878 -0.25964168
0001f0 da 65 04 3f f3 b3 9e be 66 e4 c8 3e 0a 6e 43 be
       0.51717913 -0.30996665 0.39236754 -0.19084945
000200 c6 55 94 be 1e 81 b9 3e ba 45 0d 3f fd 37 ac be
       -0.2897169 0.3623132 0.5518452 -0.33636466
000210 b3 87 a2 bc 97 4b 1b 3f be 67 92 3e d1 78 cf be
       -0.019840097 0.60662216 0.28594774 -0.40521863
000220 6b 19 e2 bd 6d 94 fa be 7a cf 16 be 46 31 99 be
       -0.11040004 -0.48941365 -0.14727584 -0.29920405
000230 74 32 3f be cc d4 ae be dd 4e 95 be 69 a8 a7 be
       -0.1867159 -0.34146726 -0.2916173 -0.32745674
000240 cb e1 c8 be 5c ed 0e be 3d 29 11 3d 42 d2 d3 3e
       -0.39234766 -0.13957733 0.03543972 0.4137135
000250 88 bc db 3c eb ee b3 3e fe 7c ea 3c d7 09 1e 3f
       0.026823297 0.35143217 0.028624054 0.61733764
000260 3d 81 d1 3e 7e 14 86 3e dd 20 ea be e8 57 93 bd
       0.40918913 0.2618751 -0.45728198 -0.07194501
000270 27 7e 8b 3c 93 18 e5 be 2d 10 df 3e 60 40 91 be
       0.017027928 -0.4474531 0.4356703 -0.28369427
000280 15 e0 0f bf 9f 8c c9 bd 62 80 d5 3e 1a c3 b5 bd
       -0.562013 -0.098412745 0.4169951 -0.08875103
000290 57 9e 9b 3d da 22 17 bf ad 19 09 be 0d 6c c7 be
       0.0759856 -0.59037554 -0.13388701 -0.38949624
0002a0 a4 0f 00 3e 9b c5 e1 3e 16 00 14 3d 89 9f 8a 3e
       0.12505966 0.44096074 0.036132894 0.2707484
0002b0 ac 36 83 3d 3f ce fb 3e ae 12 14 3d b4 f3 de bc
       0.06406912 0.4918079 0.036150627 -0.027215816
0002c0 fb f2 4a bd 94 ee 06 3e bf 06 2a be b0 62 84 3e
       -0.04954813 0.13176948 -0.16604136 0.25856543
0002d0 ca 17 45 3e 14 ef e7 3e 13 8a 76 be bf 8d 52 be
       0.19247356 0.4529959 -0.24076109 -0.20561884
0002e0 ed 7d 16 bf de ef 4e 3c 29 97 13 bd 6b b4 12 bf
       -0.587859 0.012630431 -0.03603283 -0.57306546
0002f0 28 75 c3 be 9d 1b 5d be c1 f2 63 3e 5b d1 cd be
       -0.3817532 -0.21592565 0.22260572 -0.40198788
000300 f8 27 c2 3e c1 ae cf 3d 5b 7f 36 3f 08 d0 6a be
       0.3792112 0.101407535 0.7128808 -0.2293092
000310 7e e8 9a bb cb f3 fa be d9 2c 78 be 18 1b 09 bf
       -0.0047274223 -0.49014124 -0.24235858 -0.53556967
000320 e7 0e a4 be 3b 45 45 be 3b 50 22 bc fc 74 e5 be
       -0.3204262 -0.1926469 -0.009906824 -0.44815814
000330 69 91 35 3e 27 de 95 be d0 79 ce bd 4a 27 f5 be
       0.17731251 -0.2927105 -0.10081828 -0.47881538
000340 3f 03 84 3e b2 01 95 3e 82 8c a9 be 5d 2e 03 be
       0.25783727 0.29102856 -0.3311501 -0.12810655
000350 f0 b5 a4 be 5d e0 c3 bd f5 6d ec bd ae f9 50 3e
       -0.32170057 -0.09564278 -0.1154441 0.20407745
000360 47 35 90 3e da 0b a5 3e 63 57 b8 3e 26 f9 66 3e
       0.28165647 0.32235605 0.3600417 0.2255598
000370 e2 f6 a2 be ed ad 94 be e7 7c aa 3e d1 a4 bd 3e
       -0.31828982 -0.29038945 0.33298418 0.37039807
000380 6d eb e0 be e1 f8 93 3e c3 dc de 3e 40 9d 6c 3d
       -0.43929616 0.28900817 0.43527803 0.057767153
000390 f6 8e cb be 73 e7 9e be 80 f9 a0 bd 97 b5 a9 3d
       -0.39757508 -0.31035957 -0.07860088 0.08286589
0003a0 45 c9 52 3e a0 d3 d2 3e 55 d6 46 bd 6a e0 e3 be
       0.2058459 0.41177082 -0.048544247 -0.44507152
0003b0 16 db 9d be 1a 80 8a be 72 5e 75 3e 7e 4a f0 3e
       -0.30831212 -0.2705086 0.2396181 0.46931833
0003c0 7d 26 16 bf 3c 43 3e 3e d2 29 93 bc a3 6f fe 3e
       -0.5865248 0.18580335 -0.017964277 0.49694547
0003d0 0b 6f 0e 3e b9 ef 04 3f 6b 48 99 3e 8b bf 46 3e
       0.13909547 0.5192829 0.29938063 0.19409005
0003e0 26 d1 73 3e b8 38 f7 bd 7f 0e 33 be 96 31 f4 be
       0.23810253 -0.12071365 -0.17485999 -0.4769408
0003f0 c4 14 d1 be 01 ff 1c be a7 30 6a 3e 1e fc d2 be
       -0.40836155 -0.15331651 0.22870122 -0.41207975

decoder.conv.bias f4 [128]
000000 ec 3f 67 3e 5b 64 13 3d fc 66 37 bd 64 78 af 3e
       0.22582978 0.03598438 -0.044775948 0.34271538
000010 24 fd 05 bf 25 69 72 bd 89 62 3c 3e a3 6a 36 be
       -0.52339387 -0.059182305 0.18396963 -0.17814116
000020 ce d0 01 bf 30 73 b8 3e 65 41 06 3f 5c c7 b1 3e
       -0.50709236 0.3602538 0.52443534 0.34722412
000030 5d f3 e4 3e 65 a2 24 3e 9c be e2 3e b0 6f 01 3e
       0.4471692 0.16077574 0.44286048 0.12640262
000040 f2 89 fa bd 42 ce dc be 79 6d 10 3d 31 79 ab 3e
       -0.12233342 -0.43126112 0.03526065 0.334909
000050 25 54 4e 3e 0f 28 cd 3e 9d 55 2e be 8c 48 d4 be
       0.20149286 0.40069625 -0.17024846 -0.414616
000060 58 8c a1 3c 81 c8 cd be 00 81 d7 bd 9a 93 88 be
       0.019720241 -0.40192035 -0.10522652 -0.2667511
000070 46 de 92 be 7c 7c 04 3f 49 d2 80 3d 54 45 3a be
       -0.28685206 0.5175245 0.06290109 -0.18190509
000080 92 49 99 3e c1 c5 1c 3f 25 8f 5f be 59 54 14 3d
       0.29938942 0.6123925 -0.21831949 0.036213253
000090 ea 0a 87 be ae 4b 78 be 40 d2 c3 3e 4a d1 a4 3e
       -0.26375514 -0.2424762 0.38246346 0.32190925
0000a0 e7 50 a7 bd ee fc f7 3e a4 aa 2f be 36 39 1b 3e
       -0.08169728 0.48435158 -0.17154938 0.15158543
0000b0 2a bf 02 3f 66 e0 d1 bd 27 bc e0 3e 0f 0e 19 be
       0.51072943 -0.10247879 0.4389355 -0.14946769
0000c0 40 0a 38 bf 4b 74 2d 3e 46 5c 12 be 72 4c 31 be
       -0.7189064 0.16938893 -0.14293012 -0.17314318
0000d0 fe a1 96 be 61 13 7b bd e5 03 60 bc 32 27 25 bf
       -0.29420465 -0.061297778 -0.0136728035 -0.6451293
0000e0 80 bd 8c bb 8f cf ee be 71 81 4d 3e 3a df c0 be
       -0.004295051 -0.4664273 0.20068909 -0.37670308
0000f0 e7 de b2 be 72 a9 9e 3e 51 94 68 be 2b 19 70 be
       -0.34935686 0.30988652 -0.22712828 -0.23447101
000100 1f 5a 4c bc b2 58 6c be 97 7a e9 be e4 b0 7f bd
       -0.012472658 -0.2308071 -0.4560134 -0.062424555
000110 9c 57 04 3f d4 54 0b 3e ea 71 bb 3e 6c a3 06 3e
       0.5169618 0.13606578 0.36610347 0.13148278
000120 e9 29 9a 3e be 5e 53 bd fa d4 79 be d9 61 e5 be
       0.301101 -0.051604025 -0.2439765 -0.44801214
000130 0a 3b fd be eb 0b ca 3e ef e9 a0 3e 3a 58 4f be
       -0.49459106 0.39462218 0.31428477 -0.202485
000140 5f 8c 33 3f af e5 8e be 4e 6d f0 3e 98 f7 b8 3e
       0.70136064 -0.2790961 0.46958393 0.361264
000150 b9 ed c3 be ce e8 0b bc cd fa ac be 66 d5 f6 3c
       -0.38267305 -0.008539392 -0.33785096 0.030131053
000160 df 0c c0 3d 77 a0 ab be a9 c8 ee be bb 90 1b 3e
       0.09377455 -0.33520862 -0.46637467 0.15191929
000170 9f 74 d7 3e 7f 25 ff 3e 58 f7 a7 3e 17 78 cd 3d
       0.42081162 0.49833295 0.32805896 0.10032671
000180 ae ef cf be 27 5d f4 be 6a 19 b9 3e c9 75 29 3f
       -0.4061255 -0.4772732 0.36152202 0.6619535
000190 ca 11 c2 3e e8 ae ae 3e aa ff cf bc 49 22 59 3e
       0.37904197 0.34117818 -0.025390465 0.21204485
0001a0 e9 55 0a bf 1b 64 24 be 80 9f ac 3e 31 6a be be
       -0.5403734 -0.16053812 0.3371544 -0.37190393
0001b0 9d 6f cc be 92 f7 9b be 13 d6 08 3e 63 6a b0 be
       -0.39928904 -0.3046232 0.13362913 -0.34456167
0001c0 12 90 30 3e 20 ca c1 be 6e 03 27 3f 4d fd f1 bd
       0.17242458 -0.37849522 0.6523961 -0.118158914
0001d0 a4 cf f7 be 18 4f 62 3e d7 64 bc 3e f7 e5 09 bf
       -0.48400605 0.22100484 0.36795685 -0.53866524
0001e0 00 13 cb 3e 47 c3 b1 be 69 b5 31 bf 6b 8f 41 be
       0.39662933 -0.34719297 -0.69417435 -0.18902366
0001f0 d2 58 a0 3c 8d 23 88 3e 39 25 2b 3f 0c 0e ba 3d
       0.019573603 0.26589623 0.6685367 0.090847105

pointer.v f4 [1, 1, 128]
000000 eb 93 4d 3f f8 3a f0 3f b3 e8 3b 3f 57 22 53 bf
       0.8030383 1.8767996 0.73401946 -0.82474273
000010 27 0f 5f bf 17 57 d1 3f 5f 00 cf 3f ce ce 76 3f
       -0.87132496 1.6354703 1.6171988 0.9640931
000020 2d ed 59 bf 46 08 5e bf 64 69 62 3f 3f dc b0 bf
       -0.85127527 -0.86731374 0.88442063 -1.3817214
000030 cd 8b 4b bf b5 c9 61 3f 13 aa 61 bf ac 5f c0 3f
       -0.79510194 0.88198406 -0.8815014 1.5029197
000040 e6 df 50 bf 04 ee bc bf 06 2a 63 bf d5 45 4d bf
       -0.8159164 -1.4760137 -0.88736 -0.8018468
000050 d0 9f 73 bf 6f 84 5f 3f 6f 46 55 bf 77 85 e6 bf
       -0.9516573 0.8731145 -0.833106 -1.800948
000060 0e 97 50 3f cc 56 d9 bf 53 b7 3a bf db e7 70 bf
       0.8148049 -1.6979613 -0.7293598 -0.94103783
000070 ce c5 3b 3f 3c 6d e1 bf 42 68 da 3f b8 0a 64 bf
       0.733487 -1.7611461 1.7063067 -0.89078856
000080 2d b6 cc 3f e0 4e 5c bf ff 81 df bf 3b 92 bc bf
       1.5993096 -0.86057854 -1.7461547 -1.4732126
000090 03 8d d1 bf e7 f0 d7 bf 6f e0 45 bf c8 a5 be 3f
       -1.6371158 -1.6870393 -0.77295583 1.4894342
0000a0 3b d0 46 bf 57 2e 34 bf 77 a8 65 3f 47 67 b9 bf
       -0.77661484 -0.7038321 0.8971018 -1.4484643
0000b0 45 4b d2 3f 59 d8 50 3f 08 0d 42 bf df 2a 5d bf
       1.642922 0.8158012 -0.75801134 -0.8639354
0000c0 37 f3 5d 3f 70 a8 3f 3f e7 01 38 3f 46 6e d8 3f
       0.8669924 0.7486639 0.718779 1.6908653
0000d0 8d c2 3e bf 10 e0 39 bf 7b a2 5e 3f 46 88 db bf
       -0.7451561 -0.7260752 0.86966676 -1.7150962
0000e0 df 88 36 3f dd 92 d7 bf 6b 07 db 3f 92 12 5f bf
       0.713026 -1.6841694 1.7111639 -0.8713771
0000f0 5b 81 4d 3f 1f 4c 44 3f 1c c0 69 3f e9 81 47 bf
       0.80275506 0.7667865 0.9130876 -0.779326
000100 2c af d4 bf f4 25 f5 3f 07 21 5e bf 15 a3 5f 3f
       -1.6615958 1.9152207 -0.86769146 0.8735822
000110 8c eb c0 bf c0 32 8f bf c7 95 cf 3f e7 30 ab 3f
       -1.5071883 -1.1187363 1.6217583 1.3374299
000120 8b c2 59 bf 5a 6d 48 3f 2e 53 d5 3f 72 67 4a 3f
       -0.85062474 0.7829186 1.666601 0.79064095
000130 af c4 b7 3f 83 e0 e4 bf db aa d5 3f a1 ba cf bf
       1.4356898 -1.7881016 1.6692766 -1.622883
000140 9f be dd bf fe 2c 6d 3f fb 33 55 3f fc e8 5f bf
       -1.7323798 0.9264678 0.8328244 -0.8746488
000150 56 24 e1 bf 6a 96 d5 3f 41 01 3f 3f 5f 2d f7 3f
       -1.7589214 1.6686528 0.7461129 1.9310721
000160 c4 45 bf 3f 37 b9 dd bf 6c 45 e2 bf 89 8b 65 bf
       1.4943166 -1.7322148 -1.7677436 -0.8966604
000170 e8 3c f0 bf c8 dd ca bf 3d d5 77 bf 3f f8 65 bf
       -1.8768587 -1.5848932 -0.9680975 -0.8983192
000180 65 9d ca 3f c8 c6 d3 bf eb e3 bb 3f 69 96 dd bf
       1.5829283 -1.6545038 1.467893 -1.7311527
000190 86 52 48 3f 2f e8 63 3f 59 a0 56 bf 30 52 65 bf
       0.7825092 0.8902616 -0.8383842 -0.89578533
0001a0 2d ab 53 3f 3c 95 6e bf e6 98 51 3f d1 ac 47 3f
       0.8268307 -0.93196464 0.8187393 0.7799807
0001b0 ce 22 59 3f d5 b7 5c 3f 33 4a bb 3f d1 51 48 bf
       0.8481873 0.86218005 1.4632019 -0.7824984
0001c0 88 ff 64 3f 64 8a 4a 3f 1d 1e 9e 3f b6 82 58 3f
       0.8945241 0.7911742 1.235294 0.8457445
0001d0 22 a1 db bf a9 f9 f5 bf 7b 03 5d 3f 72 7e dd 3f
       -1.7158549 -1.9216815 0.86333436 1.7304213
0001e0 c9 b6 62 bf eb 2e de 3f 96 42 40 bf 54 69 e5 bf
       -0.8856016 1.7358068 -0.751016 -1.7922769
0001f0 ff 44 c2 bf a9 67 c4 3f 5b e7 f1 bf 32 90 f2 3f
       -1.5177306 1.5344135 -1.8898729 1.8950255

pointer.W f4 [1, 128, 256]
000000 0e 08 24 be 7b f6 c1 3d cf fc 11 bd 74 06 02 bd
       -0.16018698 0.094708405 -0.035641488 -0.031744435
000010 a1 99 c5 3d a0 93 e9 bc 94 2c 55 be 82 9b 47 3d
       0.09648443 -0.028512776 -0.20817786 0.04873229
000020 e5 cc 00 be d8 34 20 bd ef c1 0c be bb bf 36 3d
       -0.12578161 -0.039112896 -0.13745855 0.044616442
000030 7a 53 30 3e 06 a6 39 3e 37 02 3e bd b9 65 88 3d
       0.17219344 0.18129739 -0.04638883 0.06660027
000040 58 7d 78 3d 17 b8 38 be 8e c0 06 bb 1f c0 61 bd
       0.060666412 -0.18038975 -0.002056155 -0.05511486
000050 ee 41 6d 3d e1 8b 1a be a1 7b 15 3e bd 1d 75 bc
       0.057924204 -0.15092422 0.14597942 -0.014960703
000060 70 3d da 3c 11 2d 14 3d 68 95 e4 bb 5c f6 81 3e
       0.026640624 0.03617579 -0.0069758184 0.2538327
000070 4a c5 e2 bc 28 d6 28 3e b5 24 27 3e ea 7a 99 bd
       -0.027681965 0.16487944 0.16322596 -0.07494147
000080 e3 5c 95 bd 88 21 86 bd b0 75 21 bd 03 8f 9b bd
       -0.07293107 -0.06549364 -0.039418876 -0.07595637
000090 bd f9 ef 3d 3f 07 96 3c 96 24 49 be db c1 6b 3d
       0.11717556 0.018314002 -0.19642863 0.05755792
0000a0 53 0e 1e 3e 60 23 9d bc 4f 6e 6a be 5c f0 5c bb
       0.15435152 -0.019181907 -0.22893642 -0.0033712601
0000b0 7c ca 24 bd e6 7f 77 bb 3f 9d a2 3d 1b e3 7a be
       -0.040232167 -0.0037765442 0.079401486 -0.24500696
0000c0 37 e8 91 bd 6e f2 18 3e ab 75 4e bd ee 62 55 be
       -0.071243696 0.1493623 -0.050405186 -0.2083852
0000d0 7e a2 e0 bb 0a 4a 76 3e b1 8f e3 bd 10 5f 88 bb
       -0.006855308 0.24051681 -0.11111391 -0.004161723
0000e0 7e 8a bc bb 38 20 f4 bd ff ba 8c 3d e6 32 1d be
       -0.0057538142 -0.11920208 0.06871604 -0.15351447
0000f0 82 27 b5 3d 61 c3 08 be c5 68 24 be 7d e3 c6 bd
       0.08845426 -0.13355781 -0.16055591 -0.09711359
000100 6e 87 cf bc bf 86 50 3d 4a 13 ac 3d b6 2f c0 3b
       -0.025333133 0.050909754 0.084021166 0.0058650626
000110 1a 3f 83 3e 73 9b 5c be ff 2d 72 be 99 f9 2d bc
       0.2563408 -0.21543674 -0.23650359 -0.010618591
000120 cd 90 fb bd d4 d2 31 bd 2d 41 ce bc 61 e0 7d 3e
       -0.12283478 -0.043413952 -0.025177563 0.24792625
000130 7f ce 28 3e 69 91 18 3e 5f 18 0f be b6 3e 09 be
       0.16485022 0.1489922 -0.1397414 -0.13402829
000140 28 98 38 be ce ab e0 3d 06 e5 fa 3d d4 cb e2 3c
       -0.18026793 0.10970269 0.12250714 0.027685083
000150 59 79 bc 3c 12 ae 69 be af bc cf bd e2 2f 60 be
       0.023007082 -0.22820309 -0.101434104 -0.21893266
000160 77 b5 8c bd 51 aa 90 bd 6c b0 f6 3d e6 10 ae 3d
       -0.06870549 -0.07063735 0.120453686 0.08499317
000170 b8 d3 3b be 39 bb 4a 3e 83 2b 78 3e 85 86 93 bd
       -0.18342483 0.19797982 0.24235348 -0.07203392
000180 c0 4c a7 bb ec 3c 29 3e 57 24 30 3d 98 5e c0 3d
       -0.005105585 0.16527146 0.043003406 0.09393042
000190 a3 ad 0d be e0 a4 81 3d ac 00 ee bd 75 53 6c 3b
       -0.13835768 0.063302755 -0.11621222 0.0036060486
0001a0 67 48 a8 bb be 93 b6 bd 9b b3 b7 3d 69 35 18 3d
       -0.005135584 -0.08914898 0.08969804 0.03716031
0001b0 0e 6d 44 3a 69 ee 65 3c 98 76 3d 3e b6 d2 16 be
       0.0007493057 0.014033892 0.18502271 -0.14728817
0001c0 20 bb a6 3d 16 9e 73 3b 6d c5 08 be 79 c2 d4 3c
       0.0814116 0.0037173084 -0.13356562 0.025971638
0001d0 36 17 f6 3c 0d 0b 55 be f1 25 40 3e 7f c4 22 bd
       0.030040365 -0.20804997 0.18764473 -0.039738175
0001e0 87 59 19 3e c2 26 96 3d 28 28 fe bc e3 99 fb bc
       0.14975558 0.07331611 -0.031025007 -0.030713027
0001f0 ba 29 3a be 06 84 66 3e 58 d4 72 be a8 7e c1 3d
       -0.1817998 0.225113 -0.23713815 0.09447986
000200 ec 7d f8 bd c9 41 f4 3d f6 b1 2e 3d e9 87 8f bd
       -0.12133393 0.1192661 0.042650186 -0.07008345
000210 5f 45 86 3d de 38 9f bd 9c 65 d4 bd 9c 74 94 3d
       0.065562 -0.077745184 -0.10370943 0.07248804
000220 6e d3 dd bd c6 00 0f be 64 9a d7 bd 6e de 41 bd
       -0.10831343 -0.13965139 -0.105274945 -0.047331266
000230 ee 0b 85 3e 4a 96 e9 3d 55 bf a5 bd f3 c7 97 3d
       0.25985664 0.114056185 -0.08093134 0.07411184
000240 d8 16 51 3e de f0 74 bd 6f 25 ac 3d c4 2c f2 bd
       0.2041887 -0.05980002 0.084055774 -0.118249446
000250 9a 9d 98 3d 97 04 d0 bd 7f ee c4 3d 4c a3 21 3e
       0.07451935 -0.101571254 0.09615802 0.15784949
000260 8e fb a5 3d 15 c4 ad 3d 48 4d ce 3d 56 c1 56 3e
       0.08104621 0.08484665 0.10073334 0.2097219
000270 71 f5 32 be f6 db 2f 3e de c6 f5 3d 64 9f ae bd
       -0.17476441 0.17173752 0.120008215 -0.08526495
000280 dc 93 d3 bd 51 51 d9 bd 0a ee 3b 3e eb 57 19 be
       -0.10330936 -0.10611213 0.18352523 -0.14974944
000290 fd 1d 62 3e cf 6a 82 3d 9f 61 12 be c1 8f a1 3d
       0.22081752 0.06368028 -0.14295052 0.07888747
0002a0 f2 9c 97 3e a0 1a 89 bd f8 0c f0 bd b2 bc 4f bd
       0.29611927 -0.066945314 -0.117212236 -0.050717063
0002b0 7e 11 75 bd 4e c1 1d be 63 ee 57 3c 0c d8 55 be
       -0.059831135 -0.15405771 0.013179394 -0.20883197
0002c0 c6 09 69 be f9 8e 28 3e 2c bb b0 bd 02 b1 f8 bd
       -0.22757635 0.1646079 -0.0862945 -0.121431366
0002d0 64 64 d0 3d 81 19 43 3e 8f ce 32 be c3 5d bc 3d
       0.10175398 0.19052698 -0.17461608 0.09197571
0002e0 5c 45 d8 3d b7 91 61 be 71 d6 f5 3d 8d 2c 93 be
       0.10560104 -0.22028242 0.12003792 -0.28744927
0002f0 76 61 2e bc fe c1 b5 bd c3 ad fe bd a9 28 16 be
       -0.010643354 -0.08874892 -0.12435486 -0.14663948
000300 1d 44 ce bd b9 61 ed 3d a3 33 a1 39 16 ef 4c bd
       -0.10071585 0.11590905 0.00030746785 -0.050032698
000310 23 63 61 3e 39 64 14 be 08 51 64 be 57 ec 47 be
       0.22010474 -0.14491357 -0.22296536 -0.1952375
000320 8d 40 55 be ca 1d 6f bd 72 0e db bc 8b f5 13 3e
       -0.20825405 -0.05837802 -0.026740286 0.14449136
000330 9c 45 4b 3e d8 f0 b5 3d 85 50 49 be 23 08 85 be
       0.19850773 0.08883828 -0.19659622 -0.2598277
000340 52 09 0b be 6e 60 57 3e a5 c3 38 3e 45 ec 84 3c
       -0.13577774 0.21032879 0.18043382 0.016225943
000350 c0 fd 2c 3d 72 3f f6 bd 19 e6 b3 bd 46 39 57 be
       0.042234182 -0.1202382 -0.08784122 -0.21017942
000360 d8 96 8c bd 3a a3 e4 bd fd 64 e2 3d b3 93 b7 3d
       -0.06864709 -0.111639455 0.11054418 0.08963718
000370 e6 1a 74 be dc b2 e8 3d 2b 9e 5b 3e d1 da 19 be
       -0.23838386 0.1136224 0.21447055 -0.15024878
000380 82 db a6 3d 12 1c 93 3e b1 a1 34 3e 51 7e a3 bb
       0.081473365 0.28732353 0.17639805 -0.0049894233
000390 b6 3e 8f be 00 de 34 3e 6e d3 2f bd f1 ac 1a 3e
       -0.27977532 0.17662811 -0.042926244 0.15105034
0003a0 66 70 32 bd 0a 9a 14 be 13 1c 31 3e 1a 08 37 bd
       -0.043564223 -0.14511886 0.17295866 -0.04468546
0003b0 52 21 be bd ae 17 c6 3d 37 b0 5b 3e b8 b2 7c be
       -0.09283699 0.09672485 0.2145394 -0.24677551
0003c0 8c ff 83 3d 02 ed e9 bd b0 38 34 be 7f 99 95 3d
       0.06445226 -0.11422159 -0.1759975 0.07304668
0003d0 6b a4 26 3c 74 c4 66 be 14 d1 f9 3d 08 67 bb bd
       0.010171036 -0.22535878 0.121980816 -0.09150511
0003e0 63 ca 42 3e 49 a6 88 3d 15 26 7c bd cc e7 6d 3c
       0.19022517 0.066723414 -0.061559755 0.014520597
0003f0 42 a0 ef bd 00 b3 bc 3c 2f 69 6b be 6d 46 e1 3d
       -0.117004886 0.023034573 -0.22989343 0.10999761

pointer.gru.weight_ih_l0 f4 [384, 128]
000000 c0 b9 14 3c 44 7e 1a 3d 54 05 06 3e ac 0c 67 3e
       0.009077489 0.037718073 0.1308797 0.22563428
000010 87 48 83 be 4b 94 1c be 7d f2 9c 3d 2c b4 ad bd
       -0.2564127 -0.15290944 0.076634385 -0.08481631
000020 9c ab 92 be 0d b9 5b 3e 8e 5a bd 3d 6a a8 ab 3d
       -0.28646553 0.2145731 0.092457876 0.08381732
000030 e1 5e 3d bb 0f b3 7f 3d c1 29 ae 3d 5f 52 7f bd
       -0.0028895664 0.062426623 0.08504058 -0.062334415
000040 96 9b 40 be 7d 96 68 be 0f 25 be 3c 0f 19 48 3e
       -0.18809351 -0.22713657 0.02321103 0.19540809
000050 43 b4 87 3d c0 6f 3f 3e 78 de ce bd 3a 11 c1 bd
       0.06626179 0.18694973 -0.10101026 -0.09427114
000060 21 3b c0 3c cc 08 4a be 4b f0 9b bd 94 d5 34 be
       0.023465695 -0.19729918 -0.076141916 -0.17659599
000070 53 d2 6a be c6 8c 33 3e 50 ab 06 3e 18 ab 1e be
       -0.22931795 0.1753417 0.13151288 -0.15494955
000080 69 ef 88 3d ad 55 24 3e 4e 88 2c be ef f0 84 3d
       0.06686289 0.16048308 -0.16848871 0.06491267
000090 29 52 aa be e8 90 14 be 42 82 04 3e 67 d0 5b bc
       -0.33265808 -0.14508402 0.12940314 -0.013416386
0000a0 48 d0 18 bd 17 8a 27 3d dc 3b ea bd ae ed ce 3d
       -0.037308007 0.040903177 -0.114371985 0.101039276
0000b0 d0 85 85 3e 66 b8 9f bc e0 59 4d 3e 9d d5 8f bd
       0.26078653 -0.019497108 0.20053816 -0.070231654
0000c0 d1 4a 0c be a8 c0 5e 3c 15 89 59 3d 11 76 d8 bd
       -0.13700415 0.0135957375 0.053109247 -0.105693944
0000d0 8d 4f 4e be 19 e3 cc 3d 54 89 e7 bd 15 f3 ab bd
       -0.20147534 0.10004253 -0.1130549 -0.083959736
0000e0 70 32 05 bd d0 41 9c be b1 c0 ac 3d 4a 86 45 bd
       -0.032518804 -0.3051896 0.084351905 -0.04822377
0000f0 c4 b8 a5 be 6f be 9e 3e 19 1b f2 ba 4f ee 02 3d
       -0.32367527 0.31004664 -0.001847121 0.03196555
000100 4a fc d7 bc 4d 99 fd bd 6e c1 93 bd ec cf 12 3e
       -0.026365418 -0.123827554 -0.07214628 0.14337128
000110 dc 13 1c 3e 61 d6 32 bd 97 07 9c 3e 73 f5 5a 3c
       0.15241951 -0.04366148 0.3047454 0.013364184
000120 a7 63 a4 3d 0d 7b 6b 3d 3c 6c 89 be 07 8d 4a be
       0.0802682 0.057490397 -0.2684039 -0.1978036
000130 23 1e e1 bd 2d 08 2e 3e 85 fc 62 3e 11 95 c8 bd
       -0.10992076 0.16995306 0.22166641 -0.09794057
000140 ec 80 85 3d 4d 78 c7 bd c6 ec f6 3c 7b 0c 6c 3e
       0.065187305 -0.097397424 0.0301422 0.23051636
000150 ae ba a7 be 99 fb 5f bd 3d 6b 5f be cb bd c1 bc
       -0.32759613 -0.0546833 -0.21818252 -0.02365007
000160 4e 0e 92 3d 30 a1 3c bd 07 90 54 be 49 42 24 3e
       0.07131635 -0.046052158 -0.20758067 0.16040911
000170 3a 8b 29 3e 79 6e b9 3d 7c b3 bb bc 41 e4 40 bd
       0.16557017 0.09054274 -0.022912733 -0.04709268
000180 90 44 70 be 63 34 82 bd 6e a4 9f 3e 92 85 87 3e
       -0.23463655 -0.06357648 0.31180137 0.26469094
000190 cc fc 90 3e 6c e1 ad 3e b8 3d 10 3e 4c 0c 81 3e
       0.2831787 0.33961046 0.14086044 0.25204694
0001a0 4b e8 21 be f5 d0 3f bd 6d 25 61 3e ef 34 de bd
       -0.15811269 -0.046830136 0.21986933 -0.1084994
0001b0 44 fa b9 be 02 60 75 3c d7 0f 88 3d c2 b5 23 be
       -0.3632375 0.014976503 0.06643646 -0.15987304
0001c0 74 22 e5 3d fd 37 d4 bd a6 09 13 3e ec ff 0b be
       0.11188212 -0.103622414 0.1435915 -0.13671845
0001d0 55 8d 93 bd 09 77 73 3e e2 da 2e 3e a0 28 9f be
       -0.07204691 0.23775877 0.17075685 -0.31085682
0001e0 95 ae 9a 3d 44 7f ec bd be 6f f9 bd 25 69 00 bd
       0.0755283 -0.115477115 -0.12179516 -0.031350274
0001f0 c1 a9 98 3d df d1 4d 3e f4 d3 3e 3d e8 a4 af bb
       0.07454253 0.2009959 0.046588853 -0.0053602345
000200 0d ce aa bc 8f 15 f4 3d e1 59 1e bd 46 a3 7f 3e
       -0.020850206 0.119181745 -0.038659934 0.24964628
000210 5e be 47 bd 6d 23 53 3b a3 c5 8c 3e f0 1b fb 3c
       -0.048765533 0.003221716 0.27494535 0.03065297
000220 be 8b 07 3d 4f 82 40 3e 45 78 87 bd 1b 64 30 3d
       0.033092253 0.18799709 -0.066147365 0.043064218
000230 f5 e2 8c bd 74 ee 44 3c 68 0a b2 bd bf 71 61 3e
       -0.06879226 0.012019742 -0.08693391 0.22016047
000240 c0 41 c3 3d e2 de b4 bd 04 63 d0 bc 98 28 b7 3d
       0.09534025 -0.08831574 -0.02543784 0.089432895
000250 2b 5c 93 3d dd 90 7f 3c 75 8b bf 3d 8a 78 81 3d
       0.07195314 0.015598503 0.09352771 0.06321819
000260 85 6b 3d 3e 40 ae 1b 3d 36 eb 66 3d a6 aa 38 3c
       0.18498047 0.038007975 0.05637666 0.0112711545
000270 e7 fd 4d be c8 cb 69 bd 03 dc dd 3d 22 32 ad bc
       -0.20116387 -0.057079107 0.108329795 -0.02114207
000280 7b 00 22 3d 8d 53 c0 bd 1b 32 7e bd 6c 8c 5a be
       0.03955124 -0.09390936 -0.062059503 -0.21342629
000290 41 f1 5a be 4f c4 40 3d 46 4a 2a bd 56 c7 4d 3e
       -0.21381094 0.047062214 -0.04157474 0.20095572
0002a0 8e be 38 3d 88 d0 5d bd 52 c6 52 3e 3a 86 72 3e
       0.045103602 -0.05415395 0.20583466 0.23684016
0002b0 e8 23 2b 3c 2d 6a a0 3d b6 e1 71 3a f6 1f 31 be
       0.010445572 0.078327514 0.0009227054 -0.17297348
0002c0 2f 90 c1 3d b5 02 17 be 46 fb f2 3d 9e f6 5e 3d
       0.09451329 -0.14747126 0.11864333 0.05443441
0002d0 0a a1 7a bc e0 59 82 be 3c 74 ff bb 56 4e 4b 3d
       -0.015297184 -0.25459194 -0.0077958386 0.049635254
0002e0 7d a7 d4 3d ec e1 4c bd c8 1a e1 3c 78 dc 08 3e
       0.10383508 -0.050020143 0.02747859 0.13365352
0002f0 d2 25 f1 bd 4a db 2a 3d a8 5e 90 bd 06 65 d4 bc
       -0.11774792 0.041713037 -0.07049304 -0.025927078
000300 3f 6a 03 3e 4a 3e c5 3d b0 8e 69 3d b6 87 80 3e
       0.12833498 0.09631021 0.057020843 0.2510354
000310 05 ec 30 be 7a e9 d8 3d 49 39 58 3e 8c 3a 2d 3e
       -0.17277534 0.10591407 0.21115603 0.16916865
000320 ed 84 02 bc fd 38 15 be 9c 52 59 be 0a 48 07 3d
       -0.007966262 -0.1457252 -0.21222919 0.033027686
000330 c4 7a 8c be a5 7d 91 bc d4 4a b4 3d d8 e8 27 3d
       -0.27437413 -0.017760107 0.08803335 0.04099354
000340 56 e9 4c bd d3 9e c3 bd e5 8a 12 be 73 47 0c 3e
       -0.050027214 -0.09551778 -0.14310797 0.1369913
000350 c9 ac ab bc 5b 20 00 be df a2 43 bd 3c e6 18 bd
       -0.020956414 -0.12512343 -0.047762748 -0.037328944
000360 1d 8d 20 be ef 95 25 3e ee 08 8b 3d a4 09 27 bd
       -0.1567883 0.16170476 0.067888126 -0.04078068
000370 75 0a a2 bd 2e fd ef bd d0 74 27 3e 0e 03 8d 3d
       -0.07912151 -0.11718212 0.16353154 0.06885348
000380 a4 66 37 be 80 f6 36 3d 10 c8 53 3e dc b1 ab 3c
       -0.17910248 0.044668674 0.20681787 0.020958833
000390 13 f4 44 bc 69 17 32 bb d5 19 90 3c db 24 45 3d
       -0.012021082 -0.0027174598 0.017590443 0.04813085
0003a0 c8 09 55 3d 03 2e ae 3d 44 fa 80 3e c6 3c 54 3e
       0.05201128 0.0850487 0.25190938 0.20726308
0003b0 fe 54 8b bd 1c d6 98 be 3f a4 fd 3d 18 16 85 3d
       -0.0680332 -0.29850852 0.12384843 0.06498355
0003c0 0b 9a 91 3d be b1 9c bd a4 e4 db bd 7e 16 f0 3d
       0.071094595 -0.07651089 -0.10736969 0.1172304
0003d0 93 77 54 3d 2b a5 4b 3d c7 30 b4 3d bd a3 42 3c
       0.051871847 0.049718063 0.08798366 0.011879859
0003e0 08 e5 47 3b 51 f6 2c 3d cd 63 29 3e 87 a0 2b bd
       0.0030501503 0.042227093 0.16541977 -0.041901138
0003f0 2c c6 63 bd fd bd 4d 3c 47 e8 56 be 62 09 ac bd
       -0.055608913 0.012557504 -0.20987044 -0.08400227
