dynamic_tsp/drl/tsp/20/12_46_22.667847/critic.pt (torch_old, 27572 bytes, 9 tensors)

static_encoder.conv.weight f4 [128, 2, 1]
00000000: e83f 88be 3393 58be c9b7 6cbe 91e2 31be
00000010: 73fa 4d3e 94d5 963e a3df 51bc b269 5dbd
00000020: 3f1d 963e 616e 143e e974 b1bd a609 f03d
00000030: 0e77 d7be 6de5 cd3d 2390 7abd 6bb4 6abe
00000040: a731 933d 1aa7 2d3e 8137 b03e 61cb 1c3e
00000050: b86a 703e d5c1 903e d865 c53d a90d a43d
00000060: 8223 b9be 03f5 c3bd 64b2 ba3b 832a 613e
00000070: 75af bd3d b114 39be f81c eabd 82de 04be
00000080: de97 aebe 62e1 94bd 6e32 163d ab3d f0bd
00000090: 2870 3dbd da54 1cbe 9199 b0be 2b3e 83be
000000a0: e634 383c 7db8 8ebb abf0 0d3e 80bd 483e
000000b0: 1708 e3bd f1d8 f4bd 13ae c6be d0d1 10be
000000c0: 3953 85bc 2f73 48be 5b26 60be 5747 6a3e
000000d0: 7956 1abe 95b8 f5bd a9e0 443e a5de c4be
000000e0: 9d87 e83e a057 33bd 4671 f0be ae58 9bbe
000000f0: 6835 083d 0003 cb3c 498b 25bd 1a24 c33e
00000100: 7c63 6ebd bfcf 263e 6689 7cbe 34d9 443e
00000110: 93d0 9dbc ad27 c5be e886 adbe 76b7 883e
00000120: 7efc 9dbd a72f 013e 193f a1be d47f afbe
00000130: b6b5 623e a6eb eeba 96c9 d43d 1b22 a13e
00000140: e5a2 7d3e f1e8 f73c ff44 0b3e e395 6c3e
00000150: 73d3 cdbc 9308 6abe 58f9 59bb c0c5 cc3c
00000160: c414 90bd dd00 cf3e 2e10 8dbd 5687 003e
00000170: 6bb5 b3be 9fe4 f23d 69d5 79bd eace 243e
00000180: f1cf abbd f1e5 193e de69 ac3e e28f 413e
00000190: c77c 293d 04bd 293e db17 bbbc 1bcf d0bd
000001a0: 842f 9a3d 6fe8 703d 72b6 72be 7014 25be
000001b0: 3464 e73e 0f91 823d c8eb 023f 3a6c 203d
000001c0: 7dfb 73be 2c5a 20be c4e7 04be 4a72 aabd
000001d0: 193e 20be 38dd 093e 0a6e 8dbe 1c24 37bd
000001e0: 75ad cb3e 3ca4 6d3e 99b6 ebbe 99aa 04be
000001f0: 0a56 c63e 5c64 833e 7053 a7be fc34 5b3e
00000200: 9f74 4ebe 51e3 9bbe f1f1 47bb 6832 233a
00000210: fc8e d13e 976a 09be 6ab7 4ebc 9d29 a13e
00000220: d4d1 0ebe a74d 97bd 4612 303e abdd 633b
00000230: 2cc2 d43e bd17 513e 424f fd3d e6bb db3d
00000240: b278 0e3e 0235 be3e 6cb4 9b3e 834d 3cbe
00000250: 77b2 b03d 20c7 a8bd 9ecc 803e 4f5b 753e
00000260: e2aa 8abc bbb8 5ebd 83bc 893d 7c2f 683e
00000270: 2558 263c 0ee8 003e 944d ccbd c8bd a73e
00000280: 6e00 c63e f42e 92bd 8130 4fbd da64 093e
00000290: 213c 843d 44fc fa3d 88fd 033c a97f c63b
000002a0: 23fc fbbd c187 1dbe 6655 023f 4222 05bb
000002b0: b0c8 bfbd c3bf 893e 1c0f 903d 6822 a23d
000002c0: d762 c73c 378a 553c 1cdd a13e 5e39 41be
000002d0: 383a 963d 6eef 76be 2b96 e63e cbfc d43d
000002e0: f4ff cc3e ab4d 2f3e b6d9 dabe 6f07 8ebe
000002f0: b24d eabd b6bb 78be 9bb9 693e 3724 9d3c
00000300: 4c4e 993e efc9 67be b083 10be 8541 98be
00000310: 3cc1 8b3d d9bb 473d 3df4 513e 400e 353e
00000320: 6f19 babb a9ae a93e 98ce 01be 392e 6abe
00000330: a203 5bbe d8b1 4a3e 0b87 3c3e bc44 5e3e
00000340: 24a5 9cbe 1a0f 603e 96bb 9a3c 3634 343e
00000350: 3dc4 133e 568b 3a3e 677d 663c 680b 183c
00000360: 2ed2 c5ba 6f28 163c 8399 dc3e 9e8d 433d
00000370: 5ceb 2ebe c2cc 933e 6b55 2a3e b665 873e
00000380: 6511 4d3c df2b b03e bf9d 07be 53d7 983d
00000390: 462e d73e 63c6 9c3d 17ec eebe a2e0 9e3c
000003a0: 0b50 a1be b329 70be 0850 293e a9f1 c7bd
000003b0: 14d6 ccbe 9238 b1be 9e69 3cbe 1ff4 d0bd
000003c0: 12d3 e93b fd15 c6b9 0748 ac3e 254c 873e
000003d0: 4818 17be 102a 653d 4122 923d 197e 6ebe
000003e0: 5375 b7be 1cce a7be 3b40 9e3b 1f34 eabb
000003f0: 981d d9bc e6b6 32bd 06bc 973e 3afa 6e3e
-0.26611257 -0.21149902 -0.23116983 -0.17371584 0.2011507 0.29459822 -0.012809667 -0.054055877
0.29319188 0.14495231 -0.08664877 0.1172059 -0.4208302 0.10053525 -0.061172616 -0.22920386
0.07187205 0.16958275 0.34417346 0.15311958 0.2347821 0.28272882 0.09638566 0.08010418
-0.36159903 -0.09568217 0.0056975354 0.21988873 0.092619814 -0.180743 -0.114313066 -0.12975505
-0.3410024 -0.07269551 0.036669187 -0.11730512 -0.04624954 -0.15266743 -0.34492162 -0.25633368
0.011243081 -0.004355489 0.13861339 0.19603539 -0.110855274 -0.11955441 -0.38804683 -0.14142537
-0.016275035 -0.19575189 -0.21889631 0.22878776 -0.15072049 -0.11998097 0.19226326 -0.38451114
0.45415965 -0.043784738 -0.4696142 -0.30341095 0.033254057 0.024781704 -0.040416036 0.3811348
-0.058200344 0.16290186 -0.24661788 0.19223481 -0.019264495 -0.38506833 -0.33891988 0.2670247
-0.07714175 0.12615834 -0.31493452 -0.34277213 0.2213963 -0.0018228188 0.10390012 0.31471333
0.2476917 0.030262442 0.13600539 0.23104052 -0.02512524 -0.22854833 -0.0033260193 0.024996638
-0.07035211 0.40430346 -0.06887852 0.12551627 -0.35099348 0.11860012 -0.06099454 0.16094556
-0.08389271 0.15029122 0.3367452 0.18902543 0.041378763 0.1657601 -0.022838524 -0.10195752
0.07528594 0.058815416 -0.2370241 -0.16121078 0.45193636 0.06375324 0.51141024 0.039165713
-0.23826404 -0.15659398 -0.12979037 -0.0832258 -0.15648688 0.13463295 -0.27623016 -0.04471217
0.39780775 0.23207182 -0.46037748 -0.12955703 0.38737518 0.25662506 -0.32680845 0.2140693
-0.20161675 -0.30446866 -0.0030509199 0.00062254677 0.409294 -0.13419567 -0.0126169715 0.3147706
-0.1394723 -0.07387858 0.17194471 0.0034769576 0.4155439 0.20419212 0.12368633 0.10729198
0.13913229 0.37149817 0.30411088 -0.18388943 0.086277895 -0.08241105 0.2515611 0.23960613
-0.016927186 -0.05437539 0.06725409 0.22674364 0.010152851 0.12588522 -0.09975734 0.3276198
0.38672203 -0.07137862 -0.050583366 0.13417378 0.06456781 0.12255147 0.008056052 0.0060576987
-0.12303951 -0.15383817 0.5091156 -0.0020314609 -0.0936445 0.26904115 0.07034132 0.07916719
0.024339123 0.013033441 0.31614006 -0.1886954 0.07335323 -0.24114773 0.45036444 0.10399779
0.40039027 0.17119472 -0.42744225 -0.27740046 -0.114406005 -0.24290356 0.22824709 0.019182308
0.29942548 -0.22635625 -0.14112735 -0.29737487 0.06823966 0.04876313 0.20503326 0.17681217
-0.0056793015 0.33141068 -0.12676466 -0.22869195 -0.21388105 0.19794405 0.1841089 0.21705908
-0.30594742 0.21880761 0.018888276 0.17598042 0.14430328 0.18217215 0.014067984 0.009280063
-0.0015092546 0.009164914 0.4308587 0.04774248 -0.1708197 0.28867155 0.16634147 0.26444787
0.012516354 0.3440847 -0.13243769 0.07462945 0.4202749 0.07655027 -0.46664497 0.019394223
-0.3150638 -0.23453407 0.16534436 -0.0976289 -0.4000708 -0.34613472 -0.18399665 -0.102028124
0.0071357572 -0.00037781885 0.33648703 0.2642528 -0.14755356 0.055948317 0.0713544 -0.2329029
-0.358317 -0.32774436 0.004829434 -0.0071473266 -0.02650337 -0.043631457 0.29635638 0.23337641

static_encoder.conv.bias f4 [128]
00000000: b60b 883e 9890 843e 79fc cfbe 1f31 1dbf
00000010: a820 85be afca 8cbe da84 413e 57d4 693e
00000020: 4904 3bbe 34b3 07bf 049a b1be 1848 c3bd
00000030: d944 293e d7c4 90be c824 e83d 3cd0 bf3e
00000040: a591 d03e 94f5 9a3d 6f47 1f3e 8131 e53e
00000050: f29a f3bc 49c0 7dbe e10f 0f3e 2e5c 983e
00000060: 61f2 b13e 87aa 1ebe af7e 353e c92d 733e
00000070: 94be 80be 75d2 133f ed0f efbc 05dc acbe
00000080: 0e79 cdbd f67f 91bd 34d1 c63e dc4a 64be
00000090: 347e 45bd 5bd3 e73e 1242 4dbe 1e46 b7be
000000a0: b3b9 62be 934b 86be e60c 633e b499 ae3c
000000b0: b856 b6be 9fa9 62bd 4591 b63d 3256 00bf
000000c0: 8153 a0bd 7776 efbe 2ba5 23be d26d c93d
000000d0: e033 b7bd aeeb 463e f685 ddbe 7372 9abe
000000e0: 0dcb 523e 5394 013e 41b0 1fbe 7f19 c93d
000000f0: a167 c8be 07a5 5f3e f417 eebe d4ae fabe
00000100: 3dcf e23e d9cb 58bc d760 c33d 3191 05bf
00000110: 2cca d93d f451 b1bd 2ba0 b8be f9a0 12be
00000120: a4aa cebe c97e 083e 8528 0b3e 43b7 a3be
00000130: 463d 5e3d f202 68be 560b f1bd 05c2 75be
00000140: 47f2 073d 2221 a3bd a221 54be 9c81 c0ba
00000150: 8888 403e 11d4 e2be e091 65be 7180 d5bd
00000160: 344c 3cbd 3fb5 07bd 17a5 1c3e 8f6d d4be
00000170: f754 bdbe 2666 d43e da4b a63e 08c6 993e
00000180: 0913 0d3e 71fd ad3e f967 633c fbc4 66be
00000190: 1dbc 92be 3f4f 793e 38fe edbd 99ed 80be
000001a0: 5b63 09be 61d8 22be 36ed 59be a947 6b3c
000001b0: a805 cbbb b707 00be eefa 31be aca4 edbe
000001c0: 6603 a6be 0a68 4dbe 4ac5 2abe 5e60 dd3d
000001d0: 2e91 a93e 457a a6bc e3de 0c3f d890 213e
000001e0: 2db1 5d3b c2fe 0cbf d209 d13b 054c 503e
000001f0: 2d41 053f 3ac4 3c3c a2bc 803d ce2c a6be
0.26571435 0.25891566 -0.4062231 -0.6140308 -0.26001477 -0.27498385 0.18898335 0.22834907
-0.18263353 -0.5300782 -0.34687817 -0.09535235 0.1653017 -0.28275177 0.113351405 0.37463558
0.40736118 0.075663716 0.15554594 0.4476433 -0.02973697 -0.24780382 0.13970901 0.29757828
0.34755233 -0.15494739 0.17724107 0.23747934 -0.251454 0.57743007 -0.029182399 -0.33761612
-0.10032855 -0.07104485 0.38831484 -0.22294182 -0.04821606 0.4527844 -0.20044735 -0.35795683
-0.22141151 -0.26229534 0.22172889 0.021313526 -0.35613036 -0.055337545 0.08914427 -0.50131524
-0.07828427 -0.4677007 -0.15980975 0.098354 -0.08945441 0.19425842 -0.43266267 -0.30165443
0.2058527 0.12654237 -0.1559458 0.09819316 -0.39141563 0.21840297 -0.4650265 -0.48961508
0.44298735 -0.013232195 0.09539955 -0.5217467 0.10634264 -0.086582094 -0.36059698 -0.14319219
-0.40364563 0.13329615 0.13589676 -0.31975755 0.054257654 -0.22657374 -0.1176974 -0.23999794
0.033190038 -0.07965304 -0.20715955 -0.0014687064 0.18802083 -0.4430242 -0.22418928 -0.10424889
-0.04597111 -0.033131834 0.15297352 -0.41489837 -0.36978886 0.41484183 0.32479745 0.30033898
0.13776793 0.33982423 0.0138797695 -0.2253608 -0.28659144 0.24346636 -0.11620754 -0.25181273
-0.13416807 -0.15902855 -0.21281895 0.014360347 -0.0061957426 -0.12502943 -0.17380878 -0.46414697
-0.32424468 -0.20059219 -0.16676822 0.10809396 0.33118576 -0.020321975 0.550276 0.1577791
0.0033827529 -0.5507623 0.0063793445 0.20341499 0.52052575 0.011521393 0.06285979 -0.32456058

dynamic_encoder.conv.weight f4 [128, 3, 1]
00000000: cf61 3d3e 8c8a 91bd 6b41 7bbd 0ec9 b83d
00000010: dfd7 8ebe 052b 2dbe 787d 4bbe d62f f43d
00000020: e2ed 4d3e c0a7 103c d37a 83bd 90a6 c7bd
00000030: b477 35be 0174 893d 6ee0 28be bf52 4bbe
00000040: cc49 d83d b04f 97bc 66ec 8c3d 0348 893d
00000050: 784d 193e ced7 9c3d 63e7 6a3d 6f79 8a3d
00000060: 7454 213d d22a a2be b842 ddbd 3496 0ebd
00000070: f4fe 923e d90b e5bd 9eed f23d 1eeb c9be
00000080: 6b56 e3bd 5996 523e 500d c13b 0914 abbd
00000090: 5442 243d 08cd eabe 76dc 483e cd56 133e
000000a0: fab2 ca3e fc83 8fbe 0036 d0b9 0410 143e
000000b0: 9059 6e3d d804 5dbd faa8 903c f017 fd3a
000000c0: 8b08 ddbd 15a2 af3e f04d 8ebe 8614 e6bd
000000d0: 85db 33be 89bd 39be b4f9 2f3d d2e3 15bc
000000e0: 2d4d 473c aeb5 f83d fb2b 6abd 9745 a33e
000000f0: c8df b83c 0f59 a3be a8c8 18bc 7886 25be
00000100: 06e2 7cbe 68ec 02be 00ef 45bb ea11 123e
00000110: 518a 3bbe 1fce 133e 5036 983d 8c68 213e
00000120: 7e9b 1abe 38b1 e2bc 01c6 3cbe e712 493e
00000130: abc4 24bd 986d 053e 50d6 d1bc cfc0 7e3e
00000140: 3279 bd3d f6f1 92bd 8e41 da3c b130 91bc
00000150: 42a4 863d d87c f43d ede6 963e 8a65 fe3d
00000160: 9b25 d1be b038 aabd 30ea 623c 3287 9ebc
00000170: 02bf 983d e33b 41be 235b 8bbe 528e 50be
00000180: 4c4a 2cbd a125 48be d41d 80be e271 aebd
00000190: 4803 a9bb 925e 00bd df4e 35be bffc 0b3c
000001a0: 022b b0be 5302 093e 458f 3bbd ec1a 1dbe
000001b0: d8e2 07be 15bc 963b 631f bf3a a0c3 093c
000001c0: 893c 153d 187c b3be 3fa5 443e 01e2 14be
000001d0: 5711 b63e 9069 b5bc db41 19bc 90f9 973b
000001e0: 5ebd e8bd f811 a6bd 5440 a0be a9f5 213e
000001f0: bb96 813d 6e8b 88be 981e 02bd c2e8 ae3e
00000200: 2042 bf3d 0e10 06be 0081 603e 4227 8dbe
00000210: 976b 3a3e 3c46 3d3d 9de7 ae3e 7490 5bbd
00000220: db3d fe3d 6c4a 683e de9b 0abe a2b9 943e
00000230: b462 2fbe a83d 3abd 5fa2 103e 6b90 063e
00000240: 5e6e e73d a81c 153c 8ac7 7239 7c89 a5bd
00000250: 70fb 14be 9023 603e 04f4 123d 1acb 443e
00000260: ec7b 7f3e bec7 f13d 6476 32be 5e55 0dbe
00000270: 9fe4 d5bd 8961 583d c681 313e 897b 3b3e
00000280: 0eb3 3fbe a301 c7be a6ea 903d 7b54 a43e
00000290: a83d a4bc 0e01 b73d 4eea 0bba 6223 5ebc
000002a0: d353 303e 772a b33e 1022 333e 202d 69bd
000002b0: ef96 60be acd1 65be 05f6 453e 273b 4e3e
000002c0: 1c6f 5c3e 4a51 e53d ae44 31be bdc1 e9bd
000002d0: b560 2f3e 1e08 8ebe 3dd6 1dbe 6ca7 a7bd
000002e0: 05bf 97bd 8448 10bd 0105 27be 3244 04be
000002f0: 8291 893e 8e78 a13d f10b a4be 7521 9fbe
00000300: 3fc1 313e e2ad 503d 829e 193e 65e0 593e
00000310: d170 40be 7525 9c3e d5ba 503e ca65 b0be
00000320: b304 26be 72fa 833d 9207 6ebd 7d02 51be
00000330: 2109 433e 1b4c 683d 72d6 c7bd 3086 21bd
00000340: 8ed6 52be e2dd 8e3b 68eb 58be 75f7 803c
00000350: b285 973e 4903 203e 1c7f 69be 71bc f23d
00000360: 481c ed3c 2326 44be 5c9f 18be 6423 10bd
00000370: ec28 f6bd 7320 f33d fc5e 8cbd bffb 313c
00000380: ccdb b73a 6115 473e 4e27 8eb9 7c42 9f3c
00000390: 5a5f d63d 4d46 7b3d d6e3 563d 8057 05bb
000003a0: e5c1 b3be 2bbb 4abc cb7b 2a3e 27ca 053e
000003b0: 382b 1dbe 00bc 26ba 58e2 d93e f9cf 443e
000003c0: be05 2bbe 143a 2bbe ae25 9fbe 8e84 3bbe
000003d0: e195 353e a1b1 0abe 6f92 27be 7ecc 483d
000003e0: 6561 9ebc 6b02 093e ea88 1bbe cd67 583e
000003f0: 46d8 903d f14b adbc 69a2 0c3e 4f86 3fbe
0.18494342 -0.07106504 -0.061341684 0.09022723 -0.27899072 -0.16910942 -0.19872081 0.119231865
0.20110276 0.008829057 -0.06419911 -0.09748566 -0.17721444 0.06711579 -0.16491863 -0.19855784
0.10560951 -0.018470615 0.06881027 0.06703188 0.14970958 0.07658349 0.057349574 0.06761443
0.03938718 -0.31673294 -0.10803741 -0.034811214 0.2871014 -0.111839004 0.11861728 -0.39437193
-0.11100467 0.20565166 0.0058914796 -0.08353431 0.040102318 -0.4585955 0.19615349 0.1438858
0.39589673 -0.28030384 -0.00039713085 0.14459234 0.058190882 -0.053959697 0.0176587 0.0019309502
-0.10792645 0.34303346 -0.27793837 -0.11234383 -0.17564209 -0.18138708 0.042962745 -0.009148555
0.012164396 0.12144028 -0.05717085 0.3188903 0.022567645 -0.31903884 -0.009325184 -0.16164577
-0.24695596 -0.12785494 -0.003020227 0.14264646 -0.18314482 0.14434098 0.07432234 0.15762538
-0.15098378 -0.027672395 -0.18434907 0.19636117 -0.04022662 0.13030088 -0.025614887 0.24878238
0.09251632 -0.07175057 0.026642587 -0.017723413 0.065742984 0.119378746 0.29473057 0.12421711
-0.40849003 -0.083115935 0.01384978 -0.019351576 0.07458307 -0.18870501 -0.2721797 -0.20366791
-0.042063043 -0.19545604 -0.25022757 -0.08517815 -0.005157862 -0.03134019 -0.17705868 0.008544146
-0.34407812 0.13379793 -0.04579093 -0.15342301 -0.13270128 0.004600058 0.0014581498 0.008408457
0.036434684 -0.35055614 0.19203661 -0.14539339 0.35560104 -0.022145063 -0.00935408 0.0046379045
-0.11364244 -0.08108896 -0.31299078 0.15816368 0.06327578 -0.26668876 -0.031767458 0.34161955
0.09338784 -0.13092062 0.2192421 -0.27569014 0.18205105 0.04620956 0.34161082 -0.053604558
0.12414142 0.2268464 -0.13536021 0.29047877 -0.17127496 -0.045468956 0.1412444 0.13141029
0.11300348 0.00910107 0.00023153253 -0.08082864 -0.14549041 0.21888566 0.035877243 0.19218102
0.24949616 0.11805676 -0.17427975 -0.13802096 -0.10443997 0.05282739 0.17334661 0.18308844
-0.18720648 -0.38868436 0.07076006 0.32095703 -0.020048931 0.08935748 -0.00053373433 -0.013558241
0.17219476 0.34993336 0.17493463 -0.0569278 -0.21932577 -0.22443265 0.1933213 0.20139752
0.2152676 0.11197145 -0.17311355 -0.11413906 0.17126735 -0.27740568 -0.15413757 -0.0818623
-0.07409481 -0.035225406 -0.16310503 -0.1291664 0.26868826 0.07884322 -0.3204036 -0.31080213
0.17358874 0.050947078 0.15001872 0.21277006 -0.18793036 0.30497327 0.20383771 -0.3445266
-0.1621273 0.06444253 -0.05811269 -0.20411105 0.19046451 0.056713205 -0.09757699 -0.03943461
-0.20589659 0.0043599466 -0.2118355 0.015742997 0.2959419 0.15626253 -0.22802395 0.118523486
0.02894415 -0.19155173 -0.14904541 -0.03519 -0.12019524 0.118714236 -0.06854054 0.010863244
0.0014027297 0.19441749 -0.00027113635 0.019440882 0.104674056 0.06134634 0.052463375 -0.0020346344
-0.35108867 -0.012373726 0.16648786 0.13065396 -0.15348518 -0.00063604116 0.425555 0.1921996
-0.16701409 -0.16721374 -0.31083435 -0.18312284 0.17732956 -0.13544323 -0.16364454 0.049023144
-0.01933355 0.13379829 -0.15188947 0.21133347 0.07072501 -0.021154376 0.1373383 -0.18703578

dynamic_encoder.conv.bias f4 [128]
00000000: 3b67 293e 98ba ae3e 27e1 75be 61fd ef3d
00000010: 09db bf3d 85c1 ad3b 4a47 8fbe 9b51 adbd
00000020: 967f 773e 94bc 10bd 55b8 bf3e 5984 863d
00000030: 9d2b ac3c de98 273e 174d a2bd 215d 473b
00000040: bf55 233e 5085 4c3e f0d5 903c 68f9 bbbe
00000050: 4f2e d13d b3d3 333e 67f3 953e 1c3c 33be
00000060: ddc2 c63e 7d25 b4bd 5150 21be fa66 0e3e
00000070: 4e9d 9bbe 74c2 6b3e 8bd3 4bbd f2a8 743e
00000080: f8c1 8f3e d17b 323e a4e4 ad3e 36e1 1a3e
00000090: 007d 58bb 16b0 953e f128 91be ee87 df3c
000000a0: 6b45 b43e 0d56 423e 33a3 3bbe d04f 6c3e
000000b0: eef7 b8be bece 9cbe 2e3a 683d 5ba6 1bbe
000000c0: 9831 13bb 6750 91be bee3 a0be 1b6a 493e
000000d0: 731e 33be 7b7a d93e e85a 30be b1fd 8abc
000000e0: b7e7 85be b41f 863e e28f b4be c915 0a3e
000000f0: bc5c 893e 2c0c 993d 2169 36be 1b73 123f
00000100: aad1 1abe 0d29 76be 2264 5a3e 6a53 623e
00000110: fb7b 1e3d 02df 323d a2db 8ebe 60bd 19be
00000120: a705 5c3e 764f 2abd 47ec 74bc b57e 813c
00000130: 879d 8e3e 26b4 b43d 4b01 9f3d c94a b3be
00000140: d1e9 b63e 84bb 643d 76b0 05bc ca7e 71be
00000150: 67ef ccbd aa62 1e3e 60bd f9bd 5205 243e
00000160: ef4c 2ebe df4e 53be 2e11 523e 01cf d8be
00000170: ad18 ebbe bb75 79be 8889 1a3e 0254 a0be
00000180: c1d0 d93e c51a 36be f6dc 3abe f3ab 013d
00000190: d95a 8dbc f8c5 653e e54d 583d e1bc 8b3e
000001a0: 3713 a03d f8c9 ecbc 191f abbd eb41 f8bd
000001b0: bb98 d8bd 48a4 8abd f594 d2be 621f 563e
000001c0: 44f9 ca3e 6e6a a5be 38fe 883e 06d5 a13e
000001d0: 02ac 52be c697 75be 03fd 3bbe a9b2 233e
000001e0: cade 583e bd24 1c3d 8c8c c03e 2f04 d83d
000001f0: fba6 0c3e 5f9d eabe 6448 b4be 86cf c33c
0.16543286 0.34126735 -0.2401167 0.1171825 0.093679495 0.0053026103 -0.27984077 -0.08462831
0.24169764 -0.035336092 0.37445322 0.06568212 0.02101689 0.16366908 -0.0792486 0.00304205
0.15950678 0.1997273 0.017680138 -0.3671372 0.10213911 0.17561226 0.29287264 -0.17503399
0.38820544 -0.08796213 -0.15753295 0.1390647 -0.3039345 0.23023397 -0.04976229 0.23892573
0.28077674 0.17430045 0.339635 0.15124974 -0.003303349 0.29235905 -0.28351548 0.027286496
0.35209212 0.18978138 -0.18323974 0.23077321 -0.36126655 -0.30626482 0.05669611 -0.15200178
-0.002245998 -0.28381655 -0.31423753 0.19669382 -0.17492084 0.42476258 -0.17222178 -0.016966673
-0.26153347 0.26196063 -0.35266024 0.13484873 0.26828563 0.07473025 -0.17813541 0.57206887
-0.15119043 -0.24039097 0.2132726 0.22102132 0.038692456 0.043669708 -0.27901942 -0.15013647
0.21486531 -0.041579686 -0.014948911 0.015807489 0.2785456 0.08823423 0.077639185 -0.35017994
0.35725263 0.05584289 -0.008159747 -0.23583522 -0.100066 0.15467325 -0.121943235 0.16017655
-0.17021535 -0.20635556 0.20514366 -0.4234543 -0.45917264 -0.24361317 0.15091527 -0.31314093
0.4254208 -0.1778365 -0.18248352 0.031658124 -0.017255234 0.224388 0.05280866 0.2729254
0.07816165 -0.0289049 -0.08355541 -0.12121948 -0.10576006 -0.067696154 -0.4112927 0.20910409
0.396433 -0.32307762 0.26756454 0.31607836 -0.20573428 -0.23983678 -0.18358235 0.15986122
0.21178737 0.038120974 0.3760723 0.10547673 0.13735573 -0.4582319 -0.3521148 0.023902666

fc1.weight f4 [20, 256, 1]
00000000: 2857 b73d 10b4 b5bd 6b8d b93d b7ac 38bd
00000010: 4e30 bfbd 0afb 203d fa39 153e 07f0 fdbd
00000020: dbd6 6a3d 8070 573d a959 ba3d 335a 17be
00000030: 84a9 893d 4a23 d33c a20a c23d 6863 a13d
00000040: 3435 aa3c f0c5 dbbc 8ad6 ffbd 34ee e6bd
00000050: 7bd4 a2bc 57c9 063c 7627 1d3e 24d5 c73d
00000060: 4071 08be 052b 033e 260c afbd 4f41 d63d
00000070: 28d1 853d 242b f3bd 6f16 7d3d 7bbb 083e
00000080: e2fa cf3d f162 ee3d c595 4a3d 5f87 503d
00000090: 0ab2 a73c 7376 233e 1e4f ad3d d52f bb3d
000000a0: d51d 113e 8820 0ebe fca8 5e3d bd08 56bc
000000b0: ee96 97bd 1b02 4b3c ba6f 02be 7439 193e
000000c0: 7732 19be c1ca 9cbd be38 8cbd b5d0 22bd
000000d0: 213e 913c 06ab b7bd 3631 193c 4ce0 193e
000000e0: 80c8 11bd e2f9 f3bb f1f8 eb3d 340f f3bd
000000f0: de36 b5bd 2e27 b2bc ac39 92bc 525f 273d
00000100: ef74 6b3c 4907 603d 7418 db3c f023 183e
00000110: 2b13 b4bd bf59 dabd 1142 cfbd 5387 a6b9
00000120: 5f28 083d 91d0 adbd e751 33bd ebb3 be3d
00000130: f3b8 10bd 1327 97bd ceba 1bbd 0b76 cf3c
00000140: 9a3c a23d 0718 1cbe ae8e 5e3d 4e93 86bd
00000150: c9d4 e83d 838a 253d 3aae a3bc 5f12 2c3d
00000160: 8172 3fbc 4600 de3c 320b cc3d 69e3 0b3e
00000170: 4d7a 0abe 8038 0cbd 00c2 e1bd a7bc 91bd
00000180: 8a50 a7bd 1a85 a1bd ae81 eebd 4120 8e3d
00000190: d3da 1dbe 7b30 80bc d4f7 5e3d 1132 01be
000001a0: b73c 1c3e 7ff2 933c c1dd 50bc 436c 8a3c
000001b0: e6c9 d33d f8eb 903d 8f05 bf3d 6c80 09bd
000001c0: bfe7 b7bd 0e25 173c 5498 e8bd 83b4 e3bd
000001d0: 1da7 02be 7e46 7fbd 45ae 8cba 347d edbd
000001e0: 7f50 cf3d 849b ed3d 265f 6ebd 0778 b4bc
000001f0: ca04 873d 944b 18be fa95 eebd 1fda 843b
00000200: 57c2 84bd 368b 34bd 11ff 13bd e521 ea3b
00000210: 283f e03c 51f2 b63d 920c 3f3e 2ef8 27bc
00000220: 862c 003e a92c 5ebc fd4d e33c 0cd6 033e
00000230: e65f b63d 7bbf 40bd 1add 23be 31e3 ea3c
00000240: c4d8 b2bc 5e09 cbbd 4648 51bd a79d 1e3e
00000250: 8d9f dfbd 6fdf bebd 77ea f2bd 3716 d2bc
00000260: 3889 1a3c bf7d 1abe 5b65 04be c37a 0dbe
00000270: 837a 6cbc 337a 04be 6f06 ebbc e13c cbbd
00000280: b04f 0b3e 39d2 693c 7147 09be a07a 2f3d
00000290: 68f6 f7bd 3b9c 85bc cc00 e83d 1603 12bd
000002a0: 62c7 afbd ecd6 203c d7c6 e8bd bcf1 bd3d
000002b0: 009e 203e 1fb8 f33c e4f8 9a3d 4a66 8f3d
000002c0: b729 23be eaf4 253d 4bd6 903d aa54 173d
000002d0: 581f c9bd 9243 ec3d 2393 a1bd 97ac 763d
000002e0: 9cfb 94bd fb05 33bc 4871 703d 4805 923d
000002f0: 195f b7bd 78b9 f9bd 70b8 82bc 632c 1c3d
00000300: 0133 babc df86 913c 3e20 e9bd 876f f0bd
00000310: 2b48 083e 4e0b f73d 4f56 1b3d ea89 8b3d
00000320: aac1 c03c a3ea e63d 8e58 37bc af32 16bd
00000330: 6370 9a3d af4b 9bbd e292 153e edce f5bd
00000340: 86d0 8dbd f50c babc becb b23b 28ac e53d
00000350: 4978 d1bc dd00 ca3c 64b0 39bc afd6 3fbd
00000360: 5eea 14bd 80c3 a3bd 2a0d a53d be14 7abc
00000370: f1c7 98bd 60ff a7bb a7fe 3bbd 0d20 c53d
00000380: 1f26 0cbd cd9b ec3d 7694 033e cb59 c23c
00000390: aee7 2f3d 5b60 cebd 16be e4bd 017c 803a
000003a0: cf11 0fbd 8cdc 293d 3a41 d43d 3e86 27bd
000003b0: d79e b83d 7b9c 803d 1b5e a9bd 9a2f f43d
000003c0: b7ee 453d 7e73 253e dd31 843d cf73 433d
000003d0: 3975 b43d 2e36 cb3d e6a3 f6bd 4b04 0abe
000003e0: da07 36bd f3ee 2b3e 280d 4ebd 5afc dbbd
000003f0: 23a1 37bd df85 e4bc 9904 febd 9186 92bd
0.089521706 -0.08872235 0.090601765 -0.04508659 -0.09335385 0.03930191 0.14572898 -0.12399297
0.05733381 0.052597523 0.090991326 -0.14780502 0.06721786 0.025773663 0.09474684 0.07880288
0.020777322 -0.026827782 -0.12492092 -0.112759024 -0.01987671 0.008226714 0.15347084 0.0975745
-0.13324451 0.1280938 -0.08547239 0.104616754 0.06534034 -0.11873463 0.061788972 0.13352768
0.10155274 0.11639965 0.049459238 0.05091035 0.020470638 0.15963154 0.08462356 0.091399826
0.14171536 -0.13879597 0.054360375 -0.013063607 -0.074018344 0.012390639 -0.12737933 0.14963323
-0.14960657 -0.0765586 -0.0684676 -0.03974982 0.01772982 -0.08968167 0.009350112 0.15026969
-0.035591602 -0.00744556 0.11522091 -0.11868134 -0.08848356 -0.021747198 -0.017849766 0.04086239
0.014371141 0.054694448 0.026745059 0.14857459 -0.087927185 -0.10661649 -0.10120023 -0.00031762812
0.033241626 -0.084870465 -0.04377928 0.093116604 -0.03533263 -0.073805 -0.038019948 0.025324842
0.07921715 -0.1524354 0.05433529 -0.06571065 0.113687105 0.0404153 -0.019980539 0.042009708
-0.011685015 0.02709974 0.09963073 0.13660969 -0.13523217 -0.03423357 -0.11023331 -0.07116061
-0.081696585 -0.07886715 -0.11645828 0.06939746 -0.15415506 -0.015648117 0.054435566 -0.12616755
0.15257536 0.018059967 -0.012748183 0.016897326 0.103412434 0.070762575 0.09327232 -0.03356974
-0.08979749 0.009225143 -0.11357179 -0.11118414 -0.12759061 -0.062323086 -0.0010733089 -0.11596146
0.10122775 0.11601928 -0.05819621 -0.02202989 0.0659271 -0.14872581 -0.116496995 0.0040543224
-0.0648238 -0.044078074 -0.036131922 0.007145154 0.027373865 0.08932937 0.18657139 -0.010252042
0.12516984 -0.0135604525 0.027747149 0.12874621 0.0890501 -0.04705761 -0.16002312 0.028672786
-0.021831878 -0.09913896 -0.051094316 0.15489827 -0.10919104 -0.0931996 -0.11861127 -0.025645358
0.00943213 -0.15087031 -0.12929289 -0.13816361 -0.014433506 -0.1293724 -0.028689591 -0.09923721
0.13604617 0.014271312 -0.13406159 0.042841554 -0.12107545 -0.016309848 0.11328277 -0.035647474
-0.08582951 0.009816866 -0.11366051 0.09274623 0.15685272 0.029750882 0.07567003 0.07001932
-0.15933882 0.04051677 0.07072123 0.036945976 -0.098204315 0.115363255 -0.07889392 0.06022319
-0.07274553 -0.010926719 0.058701783 0.071299136 -0.08953685 -0.121935785 -0.015957087 0.038128268
-0.022729399 0.017764507 -0.11383103 -0.11740022 0.1330878 0.12062703 0.037924107 0.068134144
0.023529846 0.11275222 -0.011190547 -0.03666943 0.07540967 -0.07582795 0.14606813 -0.120023586
-0.06924538 -0.022711257 0.005456417 0.11214477 -0.025570052 0.024658615 -0.011333559 -0.046835598
-0.036356322 -0.07996273 0.080591515 -0.015263734 -0.07460011 -0.0051268786 -0.045897152 0.09625254
-0.034216043 0.11553154 0.12849602 0.023724457 0.042945556 -0.10076972 -0.111690685 0.0009802581
-0.034929093 0.041470096 0.103640035 -0.040899508 0.09014671 0.06279846 -0.08269902 0.11923142
0.04832336 0.16157338 0.06454823 0.047717866 0.08811421 0.09922443 -0.1204298 -0.134782
-0.04444108 0.1679037 -0.050305516 -0.107414916 -0.044831406 -0.027895866 -0.12403221 -0.07154573

fc1.bias f4 [20]
00000000: 0eb5 72bc c3fa 75bd 9b1e e6bd 7be9 a93c
00000010: 1702 17be fe8c 7ebd 5877 4dbc 9f77 92bd
00000020: c4be 89bc 49e6 ccbd a6e7 a93c 10f1 293d
00000030: 9cd9 82bd dcfa 3e3c 0b47 21bc ae48 a03c
00000040: 4012 8bbd fc4a 92bc 1094 ad3c b27d dabd
-0.014813675 -0.060053598 -0.11236306 0.020741215 -0.14746891 -0.06214618 -0.012540661 -0.07151722
-0.016814597 -0.10004861 0.020740341 0.04148966 -0.06389162 0.011656489 -0.009843598 0.019565906
-0.0679059 -0.017858021 0.021188766 -0.10668506

fc2.weight f4 [20, 20, 1]
00000000: 508a 8ebd 3836 773e 2cff ccbd a43c 633e
00000010: 7c68 0fbe f278 a5bd 4b5e 52be 40fe 453e
00000020: d330 1dbd 470b 973d bd69 7f3e dee3 9c3e
00000030: ee35 4a3e c8f7 2ebb fb0c 47be 188b 86be
00000040: b5a8 6b3e fc4e adbd 90bd ef3d a700 873e
00000050: a02c 23bc 3d60 73be 269c e03e ba48 663d
00000060: 8ef3 acbd 1922 8c3e 40e0 0bbd 10f6 d43c
00000070: 913d 52bd ab7a f63d 34dc 44be 0854 e23d
00000080: fe22 a6bd 2654 b23e d9de d7bd 6ef9 a63e
00000090: 8bc7 5d3e 4733 a0be a052 94be b990 ba3e
000000a0: e82f 853d b969 c0be dfc4 23be cb9f 343e
000000b0: 8a6b f3be f6f7 8b3e 80a2 57bd 8608 953e
000000c0: bfcb 7fbb 1b58 d5be a458 043e 460b 73be
000000d0: 9865 c9bd cc97 52be c461 d8bd 4f9d 34be
000000e0: 647d 243e 40e7 a93d 3887 793e 231e 89be
000000f0: 6800 333d c472 b53d 74fa 2f3e cdbe 76be
00000100: 7573 0e3d c64f 80be 306d b23d ec4d e1bd
00000110: d943 d2be f845 173d fb2f 6fbe 56c2 b5be
00000120: 26d2 873e c426 b7be c925 8ebe f0a7 8a3e
00000130: 12e0 a8be b25c 933e 84ab b7bd 7846 253e
00000140: 56e3 97be 8480 84be eb46 09bd d51a 86be
00000150: 7ff7 2b3e 7447 fb3c f17e afbe 311a 8b3e
00000160: ab86 413e c342 86be 461d a43d 6009 9ebd
00000170: a6d3 b2bd 6ceb 2ebe 819d a1be d676 e6bd
00000180: 573e 353c 4fc2 a3be 5836 913e e964 4e3e
00000190: 6ecc c83d 8017 c83c 44f6 aa3e 10ad 8f3e
000001a0: 1bc1 36be c7c2 c2bd 5639 a03e d750 babe
000001b0: 101d 03bf a448 06be f7ad 6a3e 4e06 853e
000001c0: 2377 9bbe 4809 d8bd 1807 afbd 2115 8d3e
000001d0: 3ab8 26be 741b f43d 640e 083e d9f9 a63d
000001e0: 9c8e 58bd 88f1 6a3e d8be 49bd 1729 97be
000001f0: e5ad a9be 861d 813e e356 7abe b5b4 333e
00000200: 87d1 1c3e 9541 4cbe 8ad0 16bd c8fe f13d
00000210: a0ac 6bbe 24a8 b0bd 7dfe a8be f3b8 263c
00000220: 3484 223e 9570 c8bd ef53 69be 9965 803e
00000230: 7c96 17be 58b8 a1be 07a6 a5be 101f 7fbe
00000240: a1d3 e7be 5303 43be 50ce 3d3e d897 083e
00000250: 9c19 e53b 35f8 b6be 58f1 bb3e 4004 0abe
00000260: cf4b bcbe 2c02 0bbe a07b 813d e434 aebe
00000270: 5fcb acbe 54ad 55be c0d5 80bd f6a6 8c3e
00000280: 6255 3abe 7092 2b3e 739a 9fbe 94ca adbd
00000290: e637 bfbd 9e96 0bbe f792 acbe 1e2b 89be
000002a0: 43ef 3a3d c45b b9be 6848 d83d 1063 2e3e
000002b0: 80b7 68bd b679 8e3e 11d1 a4be 9eee 28be
000002c0: 0e1a 2fbe a63f 8e3e c050 02bc d4cc 813e
000002d0: e069 643e 54aa 013e 2710 46bd e204 c43d
000002e0: 3655 09be 8acf 7cbe d4ac 8cbe d0c1 98be
000002f0: 30f5 0ebf 7726 6d3d d561 a33e 9c97 a23d
00000300: ff42 6abe e423 403d 586d 2bbe bc92 88be
00000310: 0699 38be c9c5 593e 00c8 aabc 54ac 293e
00000320: 5b8c 193e 21d8 b93d a1db 3d3d c2d8 f6bd
00000330: 54ac 32be 6cea 36be 1872 543e d01c 963d
00000340: 0786 b3be 0699 a63e b970 5abd 5f26 94be
00000350: 0114 0ebe 5e69 723e 6c88 ddbc 79f4 453e
00000360: 3edf 6c3e 6a68 abbe 49a6 c1be e375 97be
00000370: da91 5cbe e747 92be a7af 34be 1600 24be
00000380: 0d90 48be 2af8 b4be 218f 88be 481b 983e
00000390: ce23 c43c 4033 89be 9c2e 8d3e beb0 843e
000003a0: c32e 8fbe f8bf c73d 80d2 023e dbab b3be
000003b0: 0cfe b93e 3e47 98be dcc8 26be 815c b7be
000003c0: f4ba b33e 9c85 03be c05e f23d dca6 b83e
000003d0: 33bf 10be 5f1a a43e e522 3bbe f81e e13d
000003e0: f0d8 04bf 5763 32bd 55d5 ac3e e814 d73d
000003f0: 714a 593d 3e9e e7bd d164 3b39 8dae a4be
-0.06959975 0.24141777 -0.10009608 0.22191101 -0.14004701 -0.08079709 -0.20543782 0.1933527
-0.03837664 0.07375198 0.2494268 0.306426 0.19747135 -0.0026697982 -0.19438545 -0.26277995
0.23013575 -0.08462331 0.11706078 0.26367685 -0.00995937 -0.2376718 0.43869132 0.0562217
-0.08444892 0.27369764 -0.03414941 0.025996238 -0.051328246 0.12035116 -0.19224626 0.11051184
-0.08112143 0.34829825 -0.10540552 0.32612175 0.21658151 -0.31289122 -0.28969288 0.3643854
0.06503278 -0.3758066 -0.15993069 0.17639081 -0.47542983 0.27337617 -0.052645206 0.29108065
-0.0039031354 -0.41668782 0.12924439 -0.23734769 -0.098338306 -0.20565718 -0.10565522 -0.17638133
0.16063458 0.082960606 0.24367988 -0.26780805 0.04370156 0.088597804 0.17185384 -0.24096222
0.034778077 -0.25060862 0.08712232 -0.110011905 -0.4106739 0.03693196 -0.23358147 -0.3549983
0.26527518 -0.35771763 -0.27763203 0.2708125 -0.32983452 0.28781658 -0.08968261 0.16140163
-0.2966563 -0.258793 -0.0335149 -0.26192346 0.16793631 0.03067372 -0.34276536 0.2716842
0.18899028 -0.2622281 0.08013396 -0.07716632 -0.08731775 -0.17081994 -0.31565478 -0.11253135
0.011062226 -0.31984183 0.28361773 0.20155682 0.09804617 0.024425268 0.3339101 0.28061724
-0.17847101 -0.09509807 0.31293744 -0.363898 -0.5121622 -0.13113648 0.22917925 0.25981373
-0.30364332 -0.10548645 -0.08546275 0.27555183 -0.16281214 0.11919299 0.1328674 0.081531234
-0.052870378 0.229437 -0.04925427 -0.29523537 -0.33140483 0.25217837 -0.24447207 0.17549403
0.15314303 -0.19946893 -0.036819972 0.11816174 -0.2301507 -0.0862582 -0.3300666 0.010175931
0.15870744 -0.09787098 -0.22785924 0.25077513 -0.14803499 -0.31585956 -0.3235323 -0.24914193
-0.45278648 -0.19044237 0.18535733 0.13339174 0.0069915783 -0.35736242 0.36707568 -0.13478184
-0.36776587 -0.13575047 0.06322408 -0.34024727 -0.3374891 -0.208669 -0.062907696 0.2747113
-0.18196633 0.1675508 -0.31172523 -0.08485904 -0.09336834 -0.13631675 -0.33705875 -0.26790708
0.045638334 -0.36202824 0.105606854 0.17029977 -0.056815624 0.27827233 -0.32190755 -0.16497275
-0.17099783 0.27782935 -0.007953823 0.25351584 0.22306013 0.12662631 -0.048355248 0.09571244
-0.13411412 -0.24688545 -0.27475607 -0.29835367 -0.55842876 0.05789801 0.31910577 0.079390734
-0.2287712 0.046909228 -0.1674093 -0.2667445 -0.18027124 0.21266855 -0.02084732 0.16569644
0.14994948 0.090744264 0.046352033 -0.12053062 -0.1744855 -0.17862862 0.20746648 0.07329714
-0.35063192 0.32538623 -0.053330157 -0.28935525 -0.13874818 0.23673007 -0.02704259 0.1933154
0.23132035 -0.334781 -0.37822178 -0.29582128 -0.21540013 -0.28570482 -0.17645131 -0.16015658
-0.19586201 -0.35345584 -0.266717 0.29708314 0.023942854 -0.26796913 0.27574623 0.25916094
-0.27965364 0.09753412 0.12775612 -0.35092053 0.36326635 -0.29741853 -0.1628756 -0.35812762
0.3510357 -0.12843937 0.118344784 0.36064804 -0.14135437 0.3205137 -0.1827503 0.10992235
-0.5189352 -0.04355177 0.3375651 0.105020344 0.05304951 -0.11309479 0.00017871267 -0.32164422

fc2.bias f4 [20]
00000000: b2f7 78bd f2e8 79be 874f edbc c7cb 35be
00000010: 430f 67be e6db 883d fc50 62be 537c e5be
00000020: 37f0 4bbe 07bc a7bd eb75 313d 17e9 efbe
00000030: 9fcf b5bd 06e1 90be 4ea7 2fbe c378 023e
00000040: 6397 a0bc 9ec2 e8bd 7f89 fd3c d6bf 26bd
-0.060783096 -0.24405268 -0.028968586 -0.17753516 -0.22564416 0.06682567 -0.22101206 -0.44821414
-0.19915853 -0.0819016 0.043325346 -0.4685752 -0.08877491 -0.2829668 -0.17153665 0.1274138
-0.019603437 -0.11365245 0.030949352 -0.040710293

fc3.weight f4 [1, 20, 1]
00000000: 3753 9abe a993 1abe a9f4 ecbd e56a 343d
00000010: 9411 bc3d a19e 443d eb51 833e e1dd ea3b
00000020: d40b 96be e62a 1d3c f521 b23e a9c8 d43e
00000030: d67b d03d 9e7e de3b 66f6 a23e 14f7 39be
00000040: b88e 91bd 6024 323c 92f3 6e3e 898c 0c3e
-0.30141613 -0.1509539 -0.11570103 0.044047255 0.0918304 0.048002843 0.25648436 0.0071675633
-0.293059 0.009592747 0.34791532 0.41559342 0.1017987 0.0067899963 0.31828612 -0.18160659
-0.071072996 0.01087293 0.23335102 0.13725485
