dynamic_vrp/drl/vrp/20/22_55_44.077690/actor.pt (torch_old, 731964 bytes, 14 tensors)

static_encoder.conv.weight f4 [128, 2, 1]
000000 f8 7a a1 3e 47 cc e4 bd e2 d6 a4 be 3d 72 00 3e
       0.3153913 -0.11171775 -0.32195193 0.12543578
000010 89 8c f2 3e 4a 5e 1c bf c5 5f 2f bf 52 f9 0e bf
       0.47372845 -0.61081374 -0.6850551 -0.5584918
000020 48 fa 0f 3a 2b bf 6c bf 55 5d 32 3f 3e 8b 0d 3f
       0.0005492312 -0.924792 0.69673663 0.5529059
000030 1e 3e 32 bf 00 e5 e5 be 3f 45 b8 3e aa ad 06 bf
       -0.69626033 -0.44901276 0.3599033 -0.5260874
000040 ce 6b 95 3d 96 78 b6 be 21 64 dd be 07 68 2c 3f
       0.07295953 -0.35638875 -0.43240455 0.67346233
000050 64 42 0a bf 08 4d 73 3e 2d 66 be be 50 2c 76 be
       -0.54007554 0.23759854 -0.3718733 -0.24040341
000060 4a 48 00 bf 3a 9f 31 3f 17 c9 f2 be fd 45 00 3f
       -0.50110304 0.69383585 -0.47419044 0.50106794
000070 75 41 2f bf 2d d6 15 bf b0 4f e3 3d 5b 5e 8f 3e
       -0.68459255 -0.5852993 0.110991836 0.28001675
000080 c1 e6 4e 3f d0 5f d6 3b 9f 46 fd be de fc 1f 3f
       0.8082085 0.0065421835 -0.49467942 0.6249522
000090 b2 18 32 bf 23 19 59 be 4d 51 8d be 3f fb ef 3e
       -0.6956893 -0.21200995 -0.2760109 0.46871373
0000a0 04 39 20 3f 0c 9f f5 3e c5 1a 16 bf 58 e1 d8 be
       0.62587 0.47972906 -0.586346 -0.42359424
0000b0 3a e7 e6 3e f4 fc 78 be 29 56 26 bf 16 61 de b9
       0.45098287 -0.24315244 -0.6497522 -0.00042415474
0000c0 16 b3 3d bf 28 91 b6 be 16 b2 9e bd e3 3e 02 3f
       -0.7410139 -0.3565762 -0.07748811 0.5087721
0000d0 50 ff dd 3e 74 9c 1e bf f7 38 8f 3e fb fa 4b bf
       0.4335885 -0.6195748 0.27973148 -0.7967984
0000e0 de a6 21 bf 27 76 f4 be 25 97 48 be 9b 5b 2b 3e
       -0.63145244 -0.47746393 -0.19588907 0.16734163
0000f0 ca fd 11 bf e4 81 0c 3d d3 b1 19 3f af 96 dd 3e
       -0.57027876 0.03430356 0.60036963 0.43279025
000100 7a d4 cb 3e 66 e6 12 bc 2a f6 50 be 30 2f ee bd
       0.39810544 -0.008966064 -0.20406404 -0.11630094
000110 c0 25 97 3d 51 38 f9 be 51 65 2c bf 90 4b 97 3e
       0.07380247 -0.48675779 -0.67342097 0.29549837
000120 bf 51 4c bd b1 65 57 3d 1a 52 0e 3f cd 8b 01 bf
       -0.049882647 0.052587215 0.5559403 -0.50603944
000130 02 12 98 3e 2e a8 4a bf b4 28 20 bf e2 25 b0 be
       0.2970124 -0.7916287 -0.6256211 -0.34403902
000140 d8 ec 57 bf ae 00 cd bd 8c f5 a1 be d4 4f ae 3e
       -0.8434577 -0.10009895 -0.3163265 0.3404528
000150 a0 c3 11 3f 25 7b df 3e 3b b1 07 3e b6 b2 5c bf
       0.56939125 0.4364864 0.13251202 -0.8621019
000160 31 e7 4e be d7 c0 44 3d 21 0e c8 bd 91 45 8a 3e
       -0.2020538 0.04803547 -0.0976832 0.270062
000170 17 93 ae 3e 64 82 4b 3e a5 f5 16 3f 85 70 39 3f
       0.34096596 0.19873959 0.58968574 0.72437316
000180 e4 1b e9 be 87 14 13 3f fa 82 bf be 0a 57 1c 3f
       -0.4552909 0.574532 -0.37404615 0.6107031
000190 d4 d6 5f 3f 94 7c d0 3c 12 c0 9f 3e b6 58 0c bf
       0.87437177 0.025450028 0.31201226 -0.5482286
0001a0 8c cc 9f be f8 19 42 3f 02 a2 85 3a 49 98 8c 3f
       -0.31210744 0.75820875 0.0010195377 1.0983974
0001b0 8f 5a a8 be cd c0 6a bf d2 94 ef 3e a9 a0 a2 bc
       -0.3288159 -0.9170044 0.46793228 -0.019852
0001c0 b8 1f 30 bf 94 aa bd 3d 72 7a aa be 5b 6d d0 3e
       -0.687984 0.09261051 -0.33296543 0.40708432
0001d0 cf 4c 0c bf 8c 67 95 3e 31 25 3d bf 42 8e 86 be
       -0.548047 0.29180562 -0.73884875 -0.2628041
0001e0 01 f9 40 3f 92 95 ce be 7b c7 1c 3f 9c a1 9f 3e
       0.7537995 -0.40348488 0.61241883 0.31177986
0001f0 d0 88 d8 3e c6 e6 54 bf a8 fe 25 bf 09 e5 fd be
       0.4229188 -0.8316463 -0.648417 -0.49588802
000200 11 0c 2a bf ca 58 92 3d 8d 2b 38 3f 35 8c aa 3e
       -0.6642466 0.071458414 0.71941453 0.33310094
000210 7c c5 f5 3e 29 6e f3 bd bb 15 dd 3e f0 96 a7 be
       0.4800223 -0.11886246 0.43180642 -0.32732344
000220 ad b5 14 bf 6d ab 8d be 3d de cb be 9a f9 e5 3e
       -0.58089715 -0.2766985 -0.39817992 0.44916993
000230 fb 7d 47 bf c7 ff e1 be ec fb 0d 3f 95 76 4d be
       -0.77926606 -0.44140455 0.5546253 -0.20064767
000240 7e 69 07 3f 57 b1 5a 3f ad 93 a1 be e7 9e 14 3f
       0.52895343 0.8542685 -0.3155798 0.58054966
000250 8e f3 1c 3f ca ff 17 bd ab 8a f3 be 04 60 40 3f
       0.61309135 -0.037109174 -0.47566733 0.7514651
000260 19 ae 1c bf 4f 06 46 be 95 60 31 bf 3d fe ea bd
       -0.6120315 -0.19338344 -0.69288 -0.11474273
000270 7e 35 3a 3f c7 73 9c bd 90 f5 10 3f ae c0 0f be
       0.7273787 -0.0763927 0.566247 -0.14038345
000280 a4 78 3a bf 22 2c 18 bf 5c 28 27 bf ff e9 50 be
       -0.72840333 -0.5944234 -0.6529596 -0.20401762
000290 f9 b0 6f be 71 a0 57 3f b8 26 62 3f 52 69 1f bd
       -0.23407353 0.8422919 0.8834033 -0.0389188
0002a0 aa a8 dd 3e 09 a9 32 bf 8c 3c 17 bf 7d 17 d1 3d
       0.43292743 -0.6978918 -0.5907676 0.10209558
0002b0 ed 65 2b bf 97 ef 12 bf 53 72 38 bf 49 92 ad be
       -0.669524 -0.57396835 -0.72049445 -0.3390067
0002c0 91 ad 23 3f 65 4c 0c 3f e6 ef cd be 5d 01 10 3f
       0.63936716 0.5480407 -0.4022209 0.5625208
0002d0 69 9e fc be a7 08 30 3e e4 65 8a 3e 6a 31 d0 bd
       -0.49339607 0.171908 0.2703086 -0.10165675
0002e0 df b0 0d bf b7 f2 b9 be af 7d 9a be 29 90 60 3f
       -0.5534801 -0.3631799 -0.30174014 0.8771997
0002f0 b3 28 41 3f 9f 3e cd 3e 71 69 1c 3f 92 c3 e8 be
       0.7545273 0.4008684 0.6109839 -0.45461708
000300 fa ad 73 be 9b db 6a 3f c0 3c 44 3f 71 5d 15 3f
       -0.23796836 0.9174134 0.766552 0.58345705
000310 81 da 05 3f b2 a2 24 bf 1c a8 5e be d1 2f ed 3e
       0.52286536 -0.64310753 -0.21743816 0.46325544
000320 b1 ed 3d bf 7d ca b6 3d f7 57 43 3f 27 44 86 3e
       -0.74190813 0.0892534 0.763061 0.2622387
000330 0f ae 68 3f d5 d5 73 3d ea 39 0d 3f 96 88 85 3e
       0.9089059 0.059530098 0.55166495 0.2608077
000340 57 6b 2d 3f 6d 32 0a 3f 92 ef 77 be 6c c0 16 be
       0.6774191 0.53983194 -0.24212483 -0.1472184
000350 f1 01 aa 3e f7 5a 52 bf 7a db 9e be ed f4 70 3c
       0.33204606 -0.8217005 -0.31026822 0.014706832
000360 67 5f eb be 6e 79 45 3f bf c6 96 3e fb 43 ba be
       -0.45971224 0.7713841 0.29448506 -0.3637999
000370 44 4c 13 3e 82 0a 23 bf f5 9a 1f 3f e5 d7 36 3e
       0.14384562 -0.6368791 0.6234582 0.17855795
000380 d0 33 fe be 10 d1 d4 3d a3 f7 52 3f 0d 05 32 3e
       -0.49648905 0.10391438 0.82409114 0.17384739
000390 ba 76 f1 be 1f 41 0d 3f 4f 8b 28 bf 7b 29 54 be
       -0.47160894 0.5517749 -0.6583757 -0.20718949
0003a0 65 52 ef be 12 e3 1f 3f 40 85 3c bf d1 8b 66 3d
       -0.4674255 0.62455857 -0.73640823 0.056285683
0003b0 3f 3e 26 3f de ea 20 be 99 4b 12 3e a6 20 33 bb
       0.6493873 -0.15714595 0.1428665 -0.0027332692
0003c0 c6 0e d1 3e e5 14 c6 be c3 d9 ad 3e eb b7 b3 3c
       0.40831584 -0.38687816 0.33955202 0.021938285
0003d0 9f 57 cd be 76 fc 22 3e 71 d5 3b bf 95 d1 09 bf
       -0.40105912 0.15916619 -0.7337256 -0.5383542
0003e0 ca 01 2a be 36 59 5b bf 6b bf 24 bf 68 1d 84 be
       -0.16602245 -0.85683 -0.6435458 -0.25803685
0003f0 94 4e 32 bf b1 4b 45 3e 0a 60 61 bf 97 8d a7 be
       -0.6965115 0.19267155 -0.8803717 -0.32725212

static_encoder.conv.bias f4 [128]
000000 25 65 e0 3e 2f e4 90 be 8e f2 2c 3d 4f c4 79 3e
       0.43827167 -0.2829909 0.042223506 0.24391292
000010 a9 f0 cb 3e 10 b4 1e bf 95 47 a5 3e f0 e0 26 3c
       0.39832047 -0.61993504 0.32281175 0.010185465
000020 e2 c8 c6 3e 40 d0 91 bc bc da 20 3e da f6 bf 3a
       0.38825136 -0.017799497 0.1570844 0.0014645711
000030 32 95 2d be 06 07 07 3e 19 1c 1b 3f 93 86 2e bd
       -0.16951445 0.13186273 0.6058975 -0.04260881
000040 27 2f 9b be e7 55 d8 bc d8 2d cb 3e a6 96 8e bd
       -0.30309412 -0.026408149 0.39683414 -0.06962328
000050 b9 5a 0d bf 7a 9c 0c 3f de 9b ba 3e ce ca a9 3e
       -0.55216557 0.54926264 0.36447042 0.3316254
000060 10 67 e2 3e a1 3e e7 be a4 71 15 3d 5e b6 82 bc
       0.44219255 -0.4516497 0.03648533 -0.0159561
000070 5d e9 19 3f 87 ba 40 3d a4 a6 53 be c7 de ac be
       0.6012171 0.047052886 -0.20669037 -0.33763716
000080 62 15 b6 3e 5d 0b dc bc b3 a6 d8 3e bf 6b 29 3e
       0.3556319 -0.026860887 0.4231468 0.16545008
000090 89 9b 98 be ee 1e 02 be 8d b2 8d 3e df 94 9f 3e
       -0.29806164 -0.12707111 0.27675286 0.31168267
0000a0 ee 97 9f 3e 6e 52 c7 be a7 72 b0 be 85 34 54 3e
       0.311706 -0.38930076 -0.34462473 0.2072316
0000b0 7f f3 c1 be 7d 77 35 bd 95 0c ac 3d 8e ff 1f bf
       -0.37881085 -0.044303406 0.08400837 -0.6249932
0000c0 9e 19 3e be 02 6d 00 bc 2e d6 81 be 73 e1 07 3d
       -0.1856446 -0.0078384895 -0.2535872 0.03317399
0000d0 38 62 b1 be 20 35 2c be 93 0c 5a 3e fb 46 db 3d
       -0.34645247 -0.1681714 0.21293859 0.10706898
0000e0 49 bf 77 bd a3 45 d9 be 28 e2 0a 3e 09 2d 5a 3e
       -0.060485158 -0.4243594 0.13562834 0.21306242
0000f0 98 b1 3a bd 5c 63 a0 be 67 2f ca bd f1 5e c1 3e
       -0.045579523 -0.31325805 -0.098723225 0.37767747
000100 f3 8a 93 bd 01 0e a3 be 67 0d 2a be 4b bd ba bd
       -0.07204237 -0.31846622 -0.16606675 -0.09118136
000110 a5 fd da 3e f5 f4 0c 3d ee e3 7a 3e 42 63 52 be
       0.4277164 0.034413297 0.24501011 -0.20545676
000120 7b 9c ad be aa c7 10 bd 32 df 7c be 54 8a 8f 3d
       -0.33908448 -0.035346664 -0.24694517 0.07008806
000130 53 4a ca 3d 37 a0 f3 3e 0b 88 97 be 1f 74 02 3e
       0.098774575 0.47583172 -0.2959598 0.12739609
000140 bb 09 10 3f d2 e6 98 3e a0 1b f4 bd 08 6a 6a be
       0.5626485 0.29863602 -0.119193316 -0.2289201
000150 aa 8f 0a 3d fe 9c 70 3e 86 98 1a 3f 3b 77 ae 3e
       0.033828415 0.23497388 0.6038898 0.3407534
000160 20 29 23 bf b7 67 a9 bc 49 e2 2b be 1d ed c9 3e
       -0.63734627 -0.020679338 -0.1678554 0.39438716
000170 46 a1 af 3e cd b0 0c bd 2f b1 dc be 1d f0 d9 3d
       0.3430273 -0.034348298 -0.4310393 0.10641501
000180 88 8e 76 be ca 52 e2 be 0e 8c 81 bd a0 5f 99 bd
       -0.24077809 -0.44203788 -0.063255414 -0.07488942
000190 06 a7 ab 3e 49 96 8e be c0 e5 56 be 15 3c ab be
       0.33525866 -0.27849033 -0.2098608 -0.33444276
0001a0 43 dd 89 be be 69 52 be 06 48 1f 3d 38 3a 85 be
       -0.26926622 -0.2054815 0.038887046 -0.2602098
0001b0 de f0 c4 bd 49 4e b6 bc 37 9c c8 3e a4 91 d6 bd
       -0.09616254 -0.022254126 0.39181682 -0.104769975
0001c0 59 5a 7c 3e 9e 31 b4 be 83 11 78 be a6 ca 08 3e
       0.2464384 -0.35194105 -0.2422543 0.13358554
0001d0 b0 bc 1b 3e fe 99 9d 3e cf d3 72 be e7 09 ca bd
       0.15208697 0.3078155 -0.23713611 -0.0986517
0001e0 98 8b e2 3e 1d 2a 5a be 74 2a a6 be c2 44 28 3f
       0.44247127 -0.21305127 -0.32454264 0.65729916
0001f0 18 9b f2 3e 3a 8c f6 3e 10 91 3c 3e 6d 93 9e 3e
       0.47383952 0.4815386 0.18414712 0.30971852

dynamic_encoder.conv.weight f4 [128, 2, 1]
000000 1d 2c 1b bd ac f5 25 bf c9 39 b4 3e 2c 3d 2c 3f
       -0.037883867 -0.6482799 0.35200337 0.6728084
000010 c3 61 14 be fd 2f 30 bf 29 ca 8e bb 71 f1 0d 3f
       -0.14490418 -0.68823224 -0.0043575955 0.55446535
000020 a8 ee 06 be 14 ab 2d bf d2 6e 42 3e 58 24 13 3f
       -0.13176978 -0.6783917 0.18987587 0.5747733
000030 c9 95 09 be 38 bc 0d 3f f3 4c 86 3d 29 f5 34 3f
       -0.13436045 0.55365324 0.06557646 0.70686585
000040 c9 66 55 3d 68 85 1e bf df d2 03 3d 2b bc 1c bf
       0.052099977 -0.6192231 0.032183524 -0.6122462
000050 01 4f 5e 3d cd fd 30 bf 71 c4 16 3e f1 cc f6 3e
       0.054274563 -0.6913727 0.14723374 0.48203233
000060 32 30 a0 be 23 01 1c bf 2a 32 ae bd ff 83 10 bf
       -0.3128677 -0.60939234 -0.08505662 -0.5645141
000070 0c 18 1b 3e 8b 38 fe 3e b9 56 c1 3c 33 d2 13 3f
       0.15145892 0.49652514 0.023600923 0.57742614
000080 1a ee 96 be b5 81 30 bf 4a d1 b2 3e a1 5f 07 3f
       -0.29478532 -0.6894792 0.349253 0.52880293
000090 d8 e6 82 3e df e6 32 3f 2e 5d e4 bd 4b 1d 1a bf
       0.25566745 0.6988353 -0.11150585 -0.6020095
0000a0 de 54 b9 bd 44 00 2a bf 62 9d aa 3d 1c 30 2a 3f
       -0.0904939 -0.66406655 0.083308 0.6647966
0000b0 2a 4c 87 3e 0d a8 35 3f 78 0a 83 be 36 72 f7 be
       0.26425296 0.7095955 -0.25593925 -0.48329324
0000c0 a5 d1 7b bd cd cd 29 bf 5d 5b 65 3e 26 ef bf 3e
       -0.06147923 -0.6632965 0.22398134 0.37487143
0000d0 c0 df c8 be e2 67 0a bf 43 cd 43 3d 84 cb 14 3f
       -0.39233208 -0.5406476 0.047803175 0.5812304
0000e0 a6 c7 ab 3e a1 11 ef 3e 6c 7f 40 3c dd eb 10 3f
       0.33550757 0.46693137 0.01174913 0.566099
0000f0 ba 91 98 3e 03 64 18 3f 81 a1 f6 bd ff d5 10 bf
       0.2979868 0.59527606 -0.12042523 -0.5657653
000100 d8 fb 97 bd 4b 7f 13 bf bb 2c 61 be 24 3b 96 be
       -0.07421082 -0.5761611 -0.2198972 -0.29341996
000110 42 51 5a be b2 a1 22 bf 75 30 1c 3e 47 66 1a 3f
       -0.2132006 -0.6352798 0.1525286 0.6031231
000120 2d 61 bc 3d 97 43 2e 3f c7 b0 53 3c e0 83 15 3f
       0.09198222 0.68071884 0.012920565 0.5840435
000130 e0 c1 d7 3d 10 aa 1e 3f 26 37 9b 3e cd 81 0c 3f
       0.105350256 0.61978245 0.30315512 0.5488556
000140 9a 87 d4 3e 8a e6 e1 3e 4d 48 a2 3e 19 93 05 3f
       0.41509706 0.441212 0.31695786 0.5217758
000150 08 90 14 be 2a fe 11 3f 12 a4 60 3e 08 83 47 3f
       -0.14508069 0.5702845 0.21937588 0.7793431
000160 dc dd 9a 3d 53 db ed 3e bf cc cf 3e 3a 6a fa 3e
       0.075618476 0.46456394 0.40585896 0.4890917
000170 d5 c2 78 3e 9a ba 32 3f 02 4c 1d 3d 62 e2 c3 3e
       0.24293073 0.6981598 0.038402565 0.38258654
000180 86 24 89 3d aa 8c c4 3e 03 f3 a5 3e 69 d4 12 3f
       0.066964194 0.38388568 0.32411966 0.5735536
000190 b1 66 22 3d c8 eb 23 3f 56 aa da 3d 22 48 1d bf
       0.039648715 0.6403165 0.1067702 -0.6143819
0001a0 10 7b 35 be fe 98 0c bf 71 6e 35 3e 5c 32 0b 3f
       -0.17722726 -0.5492095 0.17717911 0.5437372
0001b0 89 70 c1 3e 24 7f 18 3f 7c d2 75 3e 36 ff 00 3f
       0.3778117 0.59569 0.24006075 0.5038942
0001c0 b1 37 1a bd 54 f6 12 bf c3 64 b2 be 7b 70 24 bf
       -0.037650768 -0.57407117 -0.348425 -0.6423413
0001d0 d2 a3 ee 3d dd 32 36 3f 2f d5 10 be 21 cd 20 bf
       0.1165234 0.7117136 -0.14143823 -0.62813
0001e0 08 e4 7a bd 10 2c 1a bf 37 4b 19 3e 27 d0 ca 3e
       -0.061252624 -0.60223484 0.14970098 0.39611933
0001f0 78 95 c6 3d 8c 5f 33 bf c9 ae 3a be 8b a4 17 bf
       0.09696478 -0.7006767 -0.18230738 -0.5923545
000200 83 88 7d 3e 21 00 2c 3f 1f a7 ee bd 49 94 27 bf
       0.24759106 0.67187697 -0.116529696 -0.6546064
000210 ab fe 93 3d a0 64 35 bf 59 bd 22 be 6e 9e 3b bf
       0.072263084 -0.70856667 -0.15892543 -0.7328862
000220 cb aa 85 3e 00 23 1d 3f 3c 12 6b be 1e e5 30 bf
       0.26106867 0.6138153 -0.22956175 -0.69099605
000230 1c 02 94 bc b8 62 16 3f e4 80 5a 3e 86 15 e5 3e
       -0.018067412 0.5874438 0.2133823 0.44742984
000240 5b e9 8b 3e 00 af 09 3f 5b 1f cc 3d 00 b6 bd 3e
       0.27326474 0.53782654 0.09966918 0.37052917
000250 7e ee c6 3c 5a 94 29 bf 63 cd 82 3e 34 b8 30 3f
       0.024283644 -0.6624199 0.25547323 0.6903107
000260 53 64 83 be 47 e0 2c bf 1e ca 44 3d 9f 35 10 3f
       -0.2566248 -0.6752972 0.048044316 0.5633182
000270 e2 a5 30 be 2e 0f f6 be da 4d 07 be ec eb 11 bf
       -0.1725078 -0.48058456 -0.13213292 -0.57000613
000280 fb e9 57 be 73 1e dd be 1a dc ff 3c b8 ab 32 3f
       -0.2108535 -0.43187293 0.031232882 0.6979327
000290 ac f7 95 bc 5d 10 34 3f be fc a6 be e3 cc f4 be
       -0.018306576 0.7033747 -0.32614702 -0.47812566
0002a0 25 b1 86 3e cf e8 01 3f c1 1f 96 3d 03 8d 13 3f
       0.26307026 0.5074586 0.07330275 0.5763704
0002b0 28 1c a3 bd 54 f2 13 3f e8 80 70 3e eb 97 de 3e
       -0.07964355 0.5779164 0.23486674 0.4347528
0002c0 85 30 a5 be 18 7b 1b bf 94 c1 15 3e fe fe bf 3e
       -0.3226358 -0.607347 0.14624625 0.3749923
0002d0 1e 51 3d be 55 c3 29 bf 6a cc 07 be b1 92 2e bf
       -0.18487975 -0.6631368 -0.13261572 -0.68192583
0002e0 9a 27 bd 3e 5c f1 14 3f a6 b3 72 3d e4 a6 a6 3e
       0.36944276 0.58180785 0.059253357 0.32549202
0002f0 12 73 65 bd 2d 98 1a 3f 8f 84 2c bc 3f 73 ac 3e
       -0.056017943 0.6038845 -0.010529651 0.33681676
000300 09 6f c5 3e 54 3e 38 3f 12 4f 21 3d 1c fd 15 3f
       0.38561276 0.71970105 0.039382048 0.5858934
000310 b4 de a7 3d 3e 9c 9d 3e bc 59 ba bd db 58 25 bf
       0.08196774 0.30783266 -0.09099147 -0.6458871
000320 03 94 e1 3d f6 f2 01 3f 1d 96 39 be 9a 2c 2e bf
       0.11014559 0.50761354 -0.1812367 -0.68036807
000330 66 cb a3 bd 7e 90 e0 be 1e 0d ad bd 34 e8 96 be
       -0.079977795 -0.4386024 -0.084497675 -0.29474032
000340 be 12 f6 bc 01 6d b5 3e 77 0b 16 3e 17 83 23 3f
       -0.030038234 0.35434726 0.14652811 0.638719
000350 b7 33 ee bc b9 58 35 bf 78 e2 7b 3e 56 01 27 3f
       -0.029077394 -0.70838505 0.2459811 0.65236413
000360 01 57 f0 3d f7 99 27 3f d7 c7 39 be 5a 40 2c bf
       0.11735345 0.65469307 -0.18142639 -0.6728569
000370 6b 57 9b bc ea f5 0e bf f3 12 9f be a2 d2 b9 be
       -0.018962583 -0.55843985 -0.31069145 -0.36293513
000380 f5 31 1d 3e 85 18 26 3f 9a 9f ef 3d ca 56 0f 3f
       0.15351088 0.64881164 0.117003635 0.55991805
000390 16 ee 85 bd a2 72 10 3f 79 cd b0 3e 89 33 bb 3e
       -0.06539552 0.56424916 0.34531763 0.36562756
0003a0 ef 06 2c 3e 48 17 28 3f fe ff 35 3e be 4b c2 3e
       0.1679952 0.65660524 0.17773435 0.37948412
0003b0 27 de 82 3d 51 5f 19 bf 40 6d 6c be a7 33 26 bf
       0.063900284 -0.59911066 -0.2308855 -0.64922565
0003c0 02 e5 d7 bc cf 3f 1d 3f 17 b2 5a bd 92 3b 33 3f
       -0.026354317 0.6142549 -0.053392496 0.7001277
0003d0 24 27 bb be 06 e4 f6 be c3 de 13 be a2 84 22 bf
       -0.365533 -0.48220843 -0.14440446 -0.6348363
0003e0 fb 3f 0e 3c ff 24 a9 3e 0d 5b c9 3b e5 e4 14 bf
       0.008682246 0.33036038 0.0061448873 -0.58161765
0003f0 55 d9 71 be 40 79 1a bf 55 5e 8e 3e b7 fb 11 3f
       -0.23618062 -0.6034126 0.27806345 0.5702471

dynamic_encoder.conv.bias f4 [128]
000000 2e d2 49 bd ab 0a 4c be 4d 3c 36 bc a6 66 99 3e
       -0.04927271 -0.19925945 -0.011122775 0.29961127
000010 65 51 35 bf de ff ec 3e 10 ee 27 3f 70 28 09 3e
       -0.70827323 0.4628896 0.6559763 0.13394332
000020 00 49 22 bf 5f 55 b7 be 3c b6 09 bf a1 8c 8b bd
       -0.6339264 -0.3580732 -0.5379369 -0.06813932
000030 39 41 12 3e 09 d7 8b be cf 87 63 be e0 1c 0f 3f
       0.14282693 -0.27312496 -0.22219776 0.55903435
000040 44 89 1f be b3 90 7e be 11 70 3e 3f 56 ee 22 bf
       -0.15579706 -0.24859886 0.7438975 -0.6364492
000050 b1 1a 2d be 28 75 b7 3e 02 f3 9f 3d a3 82 8a 3e
       -0.16904713 0.3583157 0.07810022 0.27052793
000060 74 02 81 be a1 86 a0 be 5a a6 91 3e b2 8f 36 3f
       -0.25197184 -0.31352714 0.2844723 0.7131301
000070 cf 5e 98 be 01 62 6b 3c 7a c1 a5 3d 17 8e b7 be
       -0.29759833 0.014366628 0.08093543 -0.35850593
000080 c7 41 ec bd 38 d4 73 3e af a0 2e bf 23 16 0f 3f
       -0.115359835 0.23811424 -0.68213934 0.5589315
000090 78 21 f7 3e 85 b3 9a 3e cf c7 05 3d 43 d2 89 be
       0.48267722 0.30215088 0.032661255 -0.2691823
0000a0 59 35 ca be 81 1f 9c be 21 1d 3f 3f 56 36 a2 3c
       -0.39493826 -0.30492786 0.7465382 0.0198013
0000b0 c6 83 33 be 34 31 cd be 4b d1 ac 3e 8c a6 6d be
       -0.17530736 -0.40076602 0.33753428 -0.23208064
0000c0 57 13 88 be 02 c7 03 3d 99 16 f3 3e 63 9f 48 bf
       -0.26577255 0.03217221 0.47478178 -0.78368205
0000d0 83 28 03 3d c7 30 b7 bd 7b 25 21 be 4d 88 0d be
       0.032021057 -0.089448504 -0.15736954 -0.13821526
0000e0 01 c9 0b be 87 d8 57 3e 3c 9a 0d 3e 39 9c 05 bf
       -0.13650896 0.21078692 0.13828367 -0.521915
0000f0 10 0a 04 bf e2 cc 61 be 45 8f 03 bf a9 af 08 3d
       -0.51577854 -0.22050813 -0.51390487 0.033370648
000100 71 b9 44 bd 60 4b c0 bc fd 31 00 bf 1f a0 e8 bd
       -0.048028413 -0.023473442 -0.50076276 -0.11358666
000110 82 4a a0 3e 2d d9 c7 3b a7 c8 17 3f cc 80 cb be
       0.31306845 0.0060988874 0.59290546 -0.39746702
000120 b1 1c 16 be 5b a0 9f be 4b 41 ad be e6 08 e5 3e
       -0.14659382 -0.3117703 -0.33838877 0.4473335
000130 04 05 1f bf 4c d3 61 3e 97 45 0c 3e 34 1a 13 bd
       -0.6211703 0.2205326 0.13698421 -0.03591366
000140 5d ac 25 3e ef fc 50 3f 60 1b 37 3e 80 e5 90 3e
       0.16179033 0.81635946 0.17881536 0.28300095
000150 fc 63 68 be 96 06 bc 3e d3 5c 3c 3f 79 59 8f be
       -0.22694391 0.36723775 0.7357914 -0.2799795
000160 07 59 20 3e a8 cc d6 be e3 8b e9 3b 42 d8 05 be
       0.15658961 -0.41953015 0.0071272715 -0.13070777
000170 4a 0e 59 be 7b 62 07 be 8b 38 c0 3e 02 c6 b1 bd
       -0.21196857 -0.13221161 0.3754314 -0.08680345
000180 be 96 62 be fc 86 c1 3e d3 1d 30 be ef 6c d9 be
       -0.22127816 0.37798297 -0.17198877 -0.42465922
000190 dc 38 8d bd 93 73 4b bf 4d d3 de 3d 4a d8 40 3e
       -0.06895611 -0.7947323 0.10880146 0.18832508
0001a0 48 da 15 3c 75 6c 34 3e fe b1 0b bf 7b 0d c8 3e
       0.009146281 0.17619498 -0.5456847 0.39072785
0001b0 e6 20 63 3d 13 43 ed bc eb 00 0c bf 1d d7 9d 3e
       0.055451296 -0.028962648 -0.546889 0.3082818
0001c0 9f 5e 1c 3f dc c3 81 3e ee 9c fa 3e 05 c7 c7 be
       0.6108188 0.2534474 0.48947853 -0.39019027
0001d0 f5 05 29 3f 4e 83 1e be 14 1f 4d bf ee fc 1e bf
       0.66024715 -0.15479776 -0.80125546 -0.6210469
0001e0 80 55 ff 3e 1c ac 21 3f d4 b7 be 3e b6 73 4c bd
       0.4986992 0.63153243 0.37249625 -0.049915038
0001f0 8f 40 30 bd 98 43 35 bf 5c 04 34 3e 18 42 f3 3d
       -0.043030318 -0.70806265 0.17579788 0.11877841

decoder.conv.weight f4 [128, 2, 1]
000000 4d 63 9f be 24 b4 dc be af 74 09 bf c4 b6 86 3d
       -0.31130448 -0.43106186 -0.5369367 0.065778285
000010 74 1e 11 bf 2b 20 7d be a2 17 c7 3e 56 93 05 3f
       -0.5668709 -0.24719302 0.38885218 0.5217794
000020 0d 5d 10 3e 37 f8 df 3e 1e 3a 07 3f a1 96 a8 bc
       0.14097996 0.4374406 0.52823055 -0.020579638
000030 16 42 20 3f 80 76 82 3e e1 18 f7 3e 04 68 5d 3c
       0.6260084 0.25481033 0.4826117 0.013513569
000040 b6 39 d6 be 7a a5 a0 be 17 a6 b8 be af 9e c2 be
       -0.41840905 -0.3137625 -0.36064216 -0.3801169
000050 f1 00 02 3e 23 1c 32 be 6a 95 ec 3e 10 71 28 bd
       0.12695672 -0.17393546 0.46207744 -0.04112345
000060 7b 85 30 be ff d5 91 3e e9 9c 99 3e 67 45 ec bd
       -0.17238419 0.2848358 0.30002525 -0.11536675
000070 0e e4 c8 3e 9d 2b 70 3e 16 34 b3 3e bd b8 0f 3e
       0.39236492 0.23454137 0.35000676 0.14035316
000080 ae 9c 31 bf ec 69 92 3d 95 df a5 3e 48 29 3a be
       -0.693797 0.07149109 0.32397142 -0.1817981
000090 fb f4 0a be 57 f9 df be 03 dc c6 be 90 f8 84 bd
       -0.13570015 -0.4374492 -0.3883973 -0.06492722
0000a0 05 ed cd 3e 5b a4 29 be 28 ef e7 3e 41 7f 49 3d
       0.40219894 -0.16566603 0.4529965 0.049193624
0000b0 4a 2a f1 3e 52 ec b4 bd 6f e2 84 be a5 3e cc 3e
       0.47102576 -0.08834137 -0.25954005 0.39891544
0000c0 8d 2a fb be f6 72 43 3e 78 53 9c be 37 33 cd 3d
       -0.490559 0.19086823 -0.30532432 0.10019534
0000d0 34 29 04 3f 08 f0 7b be 2d 3c b9 3e 81 72 85 3e
       0.5162537 -0.24603283 0.36178723 0.26063922
0000e0 79 7a 2e bf 15 26 ae bd 1a 47 03 3f 8e 1a 33 3d
       -0.6815563 -0.08503357 0.5128037 0.043726496
0000f0 49 22 33 3e 31 64 fe bd 44 53 00 bf 0f 5c 0c 3e
       0.17493547 -0.12421454 -0.50127053 0.13706993
000100 5c fd 27 3f 4f 52 46 be ff 2f c9 be 9f c8 0d bd
       0.6562097 -0.19367336 -0.3929443 -0.034615155
000110 c8 c1 cf 3e 26 b9 53 3e 80 71 c1 3e 27 77 9c bd
       0.4057753 0.20676097 0.37781906 -0.07639914
000120 57 78 fa 3e 09 d8 f3 3d 1b be 9c be 7f 50 17 3d
       0.48919937 0.1190644 -0.3061379 0.036942
000130 2b 33 dc be fb 9d 87 3e e5 2c 72 be 72 70 ba 3e
       -0.43007788 0.26487717 -0.23649938 0.36413914
000140 8f 04 6e be d1 ed 82 be e6 74 0b 3f 53 00 3c be
       -0.23243926 -0.25572065 0.5447525 -0.18359499
000150 a5 d9 93 3e 2d 1a f0 3e 64 47 08 3f 15 d3 c1 bd
       0.28876987 0.4689497 0.53233933 -0.09464089
000160 45 a5 d4 bd 16 ec d5 3e a4 13 08 3f 6e 6c 68 3e
       -0.10383085 0.41781682 0.5315497 0.22697613
000170 ad 12 1d bf 45 d9 37 3e 53 28 07 bf 80 c6 d3 3d
       -0.6135662 0.17953975 -0.52795905 0.10340595
000180 e0 b0 9d bd 6d 58 be bd 9c 85 d0 be bb bb fe 3d
       -0.07699752 -0.0929421 -0.40726936 0.124381505
000190 44 cb 86 be aa ec 28 3e 1b 73 14 bf b0 9b 4c 3e
       -0.26326954 0.1649653 -0.57988137 0.19981265
0001a0 d4 93 08 3d 57 0b e5 be 20 b8 cc be c1 f6 4d be
       0.033344105 -0.44735214 -0.39984226 -0.2011366
0001b0 37 98 4b be 96 8a df be 71 d0 31 be f5 e9 0c 3e
       -0.19882284 -0.4366042 -0.1736467 0.13761123
0001c0 a9 14 4f 3e 4d cb 08 bf 60 07 71 3e 4c fc 78 3e
       0.20222725 -0.5343521 0.2353797 0.24314994
0001d0 ed 4f 26 bf 04 5e 17 3e 96 66 1e bb 29 8b d5 be
       -0.6496571 0.14781958 -0.0024170033 -0.41707733
0001e0 64 65 58 be e1 6e a9 3e 77 82 db 3e ae d9 87 bd
       -0.21132427 0.33092406 0.42872974 -0.06633316
0001f0 1f 00 8a be 0a 0e 0f be 85 82 ed 3e a1 f5 01 3d
       -0.26953217 -0.13970199 0.4638864 0.03172839
000200 7e af b7 3e 4b c4 3c 3d d3 61 a7 be 0c f1 06 be
       0.35876077 0.046085637 -0.3269182 -0.1317789
000210 78 2d 65 be bb 03 cf 3e ec ac 1a bf 5e d9 d4 38
       -0.22380626 0.40432534 -0.6042011 0.000101494355
000220 6d 3c d8 3e 70 cf 42 be 73 71 0c bf 69 95 e1 be
       0.422336 -0.19024444 -0.5486061 -0.44059303
000230 fc c6 0f bf 88 8e fd bd 93 4d c2 3e ca 03 d9 bd
       -0.56163 -0.12380701 0.3794981 -0.10596426
000240 0a 08 9d 3e dd 27 8b be 7c 0e ca 3e 9b 84 6e 3d
       0.30670196 -0.2717885 0.39464176 0.05823193
000250 47 29 f9 be 6d c1 a0 3e 40 99 bf 3e be 63 95 bd
       -0.48664305 0.31397572 0.37421608 -0.07294415
000260 ac 2e 1b be b5 14 b7 be ba 13 c9 3e 79 b9 02 3f
       -0.15154523 -0.35757986 0.39272863 0.5106426
000270 0c ae 8e 3e 16 39 f7 3c 0e 79 e7 3d 46 57 f7 3e
       0.27867162 0.030178588 0.11302386 0.48308772
000280 34 7d 88 be d3 f4 fc 3d 5f fd 99 be 02 33 ed 3e
       -0.26658022 0.12351384 -0.3007612 0.46327978
000290 10 e0 d1 bd 76 dd 1b bf af c7 fe 3e 57 77 ef bb
       -0.10247815 -0.608848 0.49761721 -0.0073079276
0002a0 9a 20 a8 be 31 a5 c2 be 29 79 d8 3e 49 de c0 3e
       -0.32837373 -0.38016656 0.42279938 0.3766959
0002b0 21 86 75 3d c1 0d d1 bc 9e ae 89 be af f0 a5 3d
       0.05994237 -0.025519254 -0.26891035 0.081025474
0002c0 64 31 1b 3f 40 4b 8b bc 77 c4 0d bf 5c 7c a0 be
       0.6062224 -0.017003655 -0.55377907 -0.3134488
0002d0 54 62 5a 3d 0f d5 ae 3e 97 92 0f be f2 48 45 be
       0.05331643 0.34146926 -0.14020763 -0.19266108
0002e0 95 e6 1b bf a3 5a b7 be a9 5e 58 3e 30 37 df be
       -0.60898715 -0.35811338 0.2112986 -0.43596792
0002f0 c7 0a af be be ca 22 3e 49 d5 f2 be 73 f9 05 bd
       -0.3418791 0.15897653 -0.4742835 -0.032708596
000300 f7 ae 00 3f f2 7c d2 3e 98 34 dd be 6b bc 4d be
       0.50266975 0.4111095 -0.43204188 -0.20091407
000310 44 58 1c 3f e2 e0 d6 3c 5a fe 0a 3f 67 04 d3 bd
       0.6107218 0.02623028 0.5429436 -0.10303574
000320 5d 4b fa 3e 7e 95 52 3d 3a 05 67 3e d7 5a f1 be
       0.48885623 0.051412098 0.22560588 -0.47139618
000330 ab a8 1c be a7 8b de be ca 99 dd 3e a5 6a 0a 3c
       -0.15298717 -0.4346592 0.43281394 0.008448278
000340 41 84 d3 3e 87 e6 18 bd 25 ff a1 be bf ac e2 bc
       0.4131184 -0.037329223 -0.31639972 -0.027670262
000350 03 6f 27 3d 16 92 03 bf 48 87 05 3d 9c d9 28 3f
       0.040877353 -0.51394784 0.032599717 0.65957046
000360 69 f4 03 bf 22 ff 9d 3d 79 0f 1c 3f bb 5d d6 3d
       -0.51544815 0.07714678 0.6096111 0.104670964
000370 5e 66 75 be 81 7d 10 be 99 ab 09 3f 0f 6e 64 3e
       -0.23964831 -0.14110376 0.5377746 0.22307609
000380 ec 86 0e 3f 71 36 f0 3e 2c 19 b3 be 95 63 19 3e
       0.55674624 0.46916535 -0.34980142 0.14979394
000390 f3 41 60 be 5d 3b 85 bd d6 d8 df 3e 14 98 c0 bd
       -0.21900158 -0.06505463 0.4372012 -0.094040066
0003a0 da 5e 9c 3e 68 c2 d2 3e 3d 1b d0 be 61 b6 06 bf
       0.30541116 0.41163945 -0.4064578 -0.5262204
0003b0 98 f0 ae be 3f a0 a1 be ad be c6 3e e4 23 1f 3e
       -0.34167933 -0.3156757 0.3881735 0.15541035
0003c0 2e 5f c8 3e 3e 18 c5 3b 6e b0 1e 3f 7d 21 8e 3c
       0.39135116 0.006014853 0.6198796 0.017349953
0003d0 63 0a 17 3e c4 4d 98 3e d4 ce 74 be 65 5b b5 be
       0.14750056 0.2974683 -0.23907024 -0.3542129
0003e0 f3 c9 09 be 3c f6 fe 3d 72 dc ed 3e ea e7 20 be
       -0.13455944 0.12449309 0.4645725 -0.15713468
0003f0 4b 73 98 3e 12 2f fe 3e 1c 13 c7 3e e4 6e f0 3d
       0.29775462 0.49645287 0.38881767 0.11739901

decoder.conv.bias f4 [128]
000000 a0 9a 02 3e 88 56 28 3e ba 76 78 3e ba f2 9e be
       0.12754297 0.16439259 0.2426404 -0.3104456
000010 4d d6 9b bd be db 90 bd 79 3c cc be bb df f0 bb
       -0.07609234 -0.070731625 -0.39889887 -0.0073508895
000020 ba 5d a9 3d 96 2a e1 3d b5 21 41 bb 22 cf b8 bc
       0.0826983 0.10994451 -0.0029469554 -0.022559706
000030 35 78 05 3f dc ba f6 bd bb ce b6 be 6c 9a 45 be
       0.52136546 -0.12047359 -0.35704598 -0.19297189
000040 df 3f 8f 3e 1c c8 8e 3d 56 24 21 3e af 2b b2 3e
       0.27978417 0.069717616 0.15736517 0.34798953
000050 c0 66 48 be c7 4e f2 bd fc 71 17 3d d4 e8 b7 bc
       -0.19570446 -0.11831432 0.03697394 -0.022449888
000060 c0 9b 60 3e a8 f9 fe 3d 7a 6a 62 3d b6 47 bc bd
       0.21934414 0.12449962 0.055277325 -0.09193365
000070 37 70 c3 3e b5 6e df be 4d 5b 2e bd d5 ec 35 3d
       0.3817155 -0.4363915 -0.04256754 0.044415314
000080 4c 7d a4 be df 0f fb 3d 7a 5a 52 be ef f1 e3 be
       -0.32126844 0.122588865 -0.20542327 -0.44520518
000090 24 20 19 be ef b3 81 3e b6 91 10 3e a5 b5 1d 3c
       -0.14953667 0.2533259 0.14118084 0.009625827
0000a0 a4 37 81 3e da 37 59 be d1 f3 cb be 70 ac f7 bd
       0.25237763 -0.21212712 -0.39834455 -0.12093437
0000b0 5f 5d 82 bc 99 17 40 be 39 b8 bc 3e dc ff 9b 3e
       -0.015913663 -0.18759002 0.368593 0.30468643
0000c0 b2 58 ed 3d 5d 8d 9d 3c 8d bc a1 3e 91 e2 a7 3e
       0.11589183 0.019232446 0.31589165 0.32790044
0000d0 53 7a 74 bb 33 a2 1e 3e 84 be be 3e 56 2f d7 3e
       -0.0037304356 0.15491562 0.37254727 0.42028302
0000e0 7f c0 86 3e e0 ec a5 bd 7b c6 c8 3e c7 47 53 3e
       0.26318738 -0.08101821 0.3921393 0.2063285
0000f0 82 4f 90 3c a4 48 91 be 83 d7 87 3d a0 ba 9b bd
       0.017616037 -0.28375733 0.066329025 -0.07603955
000100 bc 6b 2b bd 09 d2 80 3e 07 27 34 bd ec 70 e3 3e
       -0.04185079 0.25160244 -0.043982532 0.4442209
000110 c7 23 e7 bc 9e 0d dc 3e f9 32 08 3e 56 44 49 be
       -0.028215302 0.4297914 0.13300695 -0.19654974
000120 12 02 92 3d 03 b7 aa be 6f 82 f4 bd fe 95 20 be
       0.07129301 -0.33342752 -0.11938941 -0.15682217
000130 ad f9 ab bc 75 2f b7 be 80 05 33 be 36 6f 95 bd
       -0.020993078 -0.35778394 -0.17482567 -0.072966024
000140 c8 ac ab 3d c4 2e 1b be da ca 6f 3e 7f 86 01 bd
       0.08382565 -0.15154558 0.23417225 -0.031622406
000150 94 12 65 3d 8e ee 09 be c7 46 eb bb 98 1e e8 3e
       0.05592592 -0.13469908 -0.007180068 0.4533584
000160 e0 f9 93 be 64 40 bc 3e 6d db 5f be eb a6 95 bd
       -0.28901577 0.36767876 -0.21861048 -0.07307228
000170 24 a4 7b 3e fd 96 32 3e d3 cc a3 3e 7f 0e 86 3e
       0.24574333 0.1744041 0.31992206 0.26182935
000180 73 96 11 be 39 76 61 3e 7c fc 10 be cc 4d df be
       -0.14217548 0.22017755 -0.14158815 -0.43614042
000190 c1 ea ef bd b5 9a 36 3e e7 8a 6a 3e f9 82 23 bd
       -0.11714698 0.17832454 0.2290455 -0.039919827
0001a0 b7 ea 08 bd c2 db 4b 3e 85 e7 1f 3e 7a 0e c6 be
       -0.033426967 0.1990805 0.15615661 -0.3868292
0001b0 c6 75 b6 3e 27 ca 31 be b4 a7 68 3e ac b9 ea be
       0.3563673 -0.17362271 0.22720224 -0.4584478
0001c0 66 79 a6 be 17 2f 37 3e 68 39 c0 3e ee 02 0a 3c
       -0.32514495 0.17889057 0.37543797 0.00842355
0001d0 47 6b b8 be c1 9b d9 3e 94 62 01 3d ba 23 1f be
       -0.36019346 0.42501643 0.031588152 -0.15540972
0001e0 c2 55 bb be 8b 25 b8 be 29 4f 91 be be 21 b1 3e
       -0.36588866 -0.35966143 -0.28380707 0.34596056
0001f0 ef 3e 20 3e 03 98 c6 be 01 e3 1a be 2d 0c 95 be
       0.15649007 -0.3878785 -0.15125658 -0.29110852

pointer.v f4 [1, 1, 128]
000000 da b5 8e 3f 3c 78 c5 3e b6 52 e5 3f f6 6c 52 bf
       1.1149247 0.38568294 1.7915866 -0.8219751
000010 b1 77 85 bf da 3b 95 3f d2 8d 19 3f cd a9 b6 3f
       -1.0427152 1.165889 0.59982026 1.4270569
000020 a4 ab f7 3e b7 2d a3 3f 90 9f 7f 3f 30 ca 58 3f
       0.4837314 1.2748326 0.9985285 0.84683514
000030 89 9b c4 3f f9 60 c1 3f 06 be 5c bf f4 46 2d 3f
       1.5359966 1.5107719 -0.8622745 0.6768639
000040 aa 46 e8 3e 19 ee db 3f dc ee 11 3f ca 68 8c 3f
       0.45366412 1.7182037 0.57005095 1.0969479
000050 0f ca a7 3f 3e 34 4b bf 65 6c 5c 3f b2 b2 8b bf
       1.3108538 -0.7937659 0.86102897 -1.0913908
000060 a6 0e af bf 6b 09 93 bf 3a 82 ef be c4 3e 91 3f
       -1.3676345 -1.1487249 -0.46779042 1.134728
000070 28 04 80 bf 4b e5 b6 bf aa 4e 4d 3f 5b 05 95 bf
       -1.0001268 -1.4288725 0.80198157 -1.1642259
000080 99 e1 6d 3f a0 39 90 3f 8e 19 a7 bf 0e 25 60 bf
       0.9292236 1.1267586 -1.3054674 -0.8755654
000090 86 e8 53 bf 6f ad cc 3f 5d 5b 84 3f a7 80 00 bf
       -0.8277668 1.5990428 1.0340382 -0.5019631
0000a0 f6 1c 55 3f 1b af 94 3f b3 f0 9f bf eb 7f 77 bf
       0.83247316 1.1615938 -1.249533 -0.9667956
0000b0 60 a2 80 bf 18 06 8c 3f 81 79 85 bf 06 c9 8e 3f
       -1.0049553 1.093936 -1.0427705 1.1155097
0000c0 70 84 25 3f e2 c5 8a 3f be 39 b5 3f e9 40 86 bf
       0.6465521 1.0841639 1.4158247 -1.0488559
0000d0 ac 19 61 3f f9 a9 7f bf 6d af 80 bf b6 dc 76 bf
       0.879298 -0.9986873 -1.0053536 -0.9643053
0000e0 19 cc 34 bf d0 57 a2 bf e2 86 b0 bf d8 c5 92 3f
       -0.7062393 -1.2683048 -1.3791163 1.1466627
0000f0 6c 34 82 3f 68 79 e8 be ac 14 3a 3f 7e 81 bd bf
       1.0172248 -0.45405126 0.7268779 -1.4805143
000100 c8 44 a1 bf 87 02 ea be 2c 16 8f 3f fa 88 b0 3f
       -1.2599115 -0.45705053 1.1178641 1.3791802
000110 c3 21 44 3f 1c 45 8f 3f b5 d9 10 bf 2d c1 b5 3f
       0.76614016 1.1192966 -0.56582195 1.4199578
000120 f6 6d ba 3f ed c7 83 3f fd c7 97 bf f2 ca b6 bf
       1.4564807 1.0295388 -1.1857907 -1.4280684
000130 53 2f 86 3f 78 07 7a bf 7c be d4 bf 04 b9 a0 bf
       1.0483192 -0.97667646 -1.6620631 -1.2556462
000140 1a e5 80 bf 50 f9 b4 3f 36 ab c8 3f 66 20 8f bf
       -1.0069916 1.4138584 1.567725 -1.1181762
000150 a2 f8 73 bf e3 c8 86 3f 0a 8d de bf e1 68 8c 3f
       -0.9530126 1.0530056 -1.7386792 1.0969507
000160 12 2e a0 3f e6 0b 47 bf 35 31 b9 3e 91 88 ae 3f
       1.251406 -0.7775253 0.36170354 1.3635427
000170 dd 13 5b bf a7 a0 99 3f 35 69 7b bf bb 7c 94 3f
       -0.85577184 1.2002152 -0.9820741 1.1600565
000180 87 69 87 3f 27 a4 82 bf 0c 44 6e 3f ab a9 7a 3f
       1.0579079 -1.0206345 0.9307258 0.9791514
000190 f2 49 83 bf d8 75 84 3f c7 96 90 bf 48 8c 97 bf
       -1.0256941 1.0348463 -1.1296014 -1.1839685
0001a0 51 43 78 bf 36 69 a1 3f c9 e1 8b 3e 86 a2 57 bf
       -0.96977717 1.2610233 0.27320698 -0.84232366
0001b0 5a e9 47 3f 0b c6 7e bf 4f ad 3c bf 88 4e af 3f
       0.7809044 -0.9952094 -0.7370195 1.3695841
0001c0 aa 96 86 3f e3 dc 58 3f 62 50 a9 bf a6 5a 1c bf
       1.0514729 0.84712046 -1.3227656 -0.6107582
0001d0 c9 ca 83 bf 7c b1 6e bf 58 fd b4 3f a3 61 49 3f
       -1.029626 -0.9323957 1.4139814 0.78664607
0001e0 2e 0a 7a bf 95 34 63 3f 4a 40 03 3f 2d cc 6c 3f
       -0.9767178 0.8875211 0.5126997 0.9249905
0001f0 40 76 73 3f 85 87 aa 3f 8a 8b a9 3f 95 63 84 bf
       0.9510231 1.3322607 1.3245709 -1.034289

pointer.W f4 [1, 128, 256]
000000 74 80 dc bd 9e 68 b7 3d 4b 42 a4 3e ab e0 a8 3e
       -0.10766688 0.08955501 0.32081828 0.32983908
000010 6c 36 09 3f d1 f3 a8 be 83 0a ac 3e 16 b4 99 3e
       0.53598666 -0.32998517 0.3360177 0.30020207
000020 d0 0e ad 3c 48 5b a6 be a2 aa 18 3d 56 94 41 3e
       0.021125227 -0.32491517 0.037272103 0.18904242
000030 b4 85 9d be c8 e4 56 be 57 95 ad 3e 96 ce 6a be
       -0.3076607 -0.2098571 0.33903 -0.22930369
000040 de 33 f5 bd 00 cb 9e be 54 63 49 3e 12 7e a3 be
       -0.119727835 -0.31014252 0.19666797 -0.31932122
000050 67 2c a0 be 49 d5 7e 3e 48 87 93 bd db 94 79 3d
       -0.31283876 0.2488605 -0.07203537 0.060932975
000060 19 bb 99 3e f0 be cf bd 8b 23 9e 3e ec 3b be 3e
       0.30025557 -0.1014384 0.30886492 0.37155092
000070 91 3d 8d 3e 70 91 3c be a4 ef 08 3e 58 1d d2 be
       0.27586034 -0.18414855 0.13372666 -0.41038013
000080 9e 0f e2 bd 55 82 11 3e 24 e9 c8 3d 71 f4 7e bd
       -0.11038135 0.14209874 0.09810093 -0.062244836
000090 44 a2 95 3d df 29 4f 3e 61 93 d2 3e 18 0c cf 3e
       0.0730634 0.20230816 0.41128066 0.40438914
0000a0 f7 e3 2d 3e bc 74 a1 3b 2b 94 ed be f2 25 eb 3e
       0.16981493 0.004927246 -0.46402106 0.45927387
0000b0 79 bc ce 3d 26 f0 87 be 7e 4f 23 be d0 2a ce be
       0.10094542 -0.26550406 -0.15948293 -0.40267038
0000c0 a3 ef 95 be d7 5a 99 be b8 97 c7 bd 4b 19 a6 3e
       -0.2928439 -0.29952118 -0.09745735 0.32441172
0000d0 cb 73 a4 be 78 eb fc be f8 54 e6 3e ac 61 08 be
       -0.32119593 -0.49398398 0.449867 -0.13318509
0000e0 57 ff e4 3d 08 33 86 bb 33 e4 f2 bd b0 be 5e 3e
       0.11181515 -0.004095439 -0.11859932 0.21752429
0000f0 bc c0 f9 3d 92 fc c8 be e2 f0 a0 3e 36 45 ef 3e
       0.12194964 -0.39255196 0.3143378 0.4673249
000100 e4 b6 02 3e a2 c5 9b be 80 c1 5a 3d c6 2b 37 3e
       0.1276508 -0.3042422 0.053407192 0.17887792
000110 68 d5 5b 3e 5f 0c 81 be a5 f1 93 3e 92 dc 1d bd
       0.21468127 -0.2520475 0.28895298 -0.03854043
000120 19 05 07 bf 48 80 a2 be 65 f3 3a be 70 80 95 be
       -0.52742153 -0.31738496 -0.1825691 -0.29199553
000130 66 f5 36 3e 3f 1c d0 3d ce 37 b1 bd 4b 64 b1 bd
       0.1786705 0.101616375 -0.08653222 -0.086617075
000140 16 ac c5 3e 9e e3 ab 3e ac 26 cf be 04 dd 01 be
       0.38607854 0.33572096 -0.40459192 -0.12681967
000150 b7 6a a8 3e 35 d9 08 3e 14 f8 bb 3e 80 43 a5 3e
       0.32893917 0.13364108 0.36712706 0.3227806
000160 37 fb 9d be c9 c7 9a be 15 3f 9c 3d af 7f e4 bd
       -0.30855724 -0.3023055 0.076292194 -0.11157166
000170 72 43 e1 3e 9a e8 c5 be e0 3b b4 be dc 8d 11 3e
       0.4399677 -0.38654023 -0.3520193 0.14214271
000180 63 f6 02 bf 6d d0 d7 be dd a4 90 3e d5 91 a6 be
       -0.51157206 -0.42151204 0.2825078 -0.32533136
000190 04 81 51 3c 15 83 9d be d8 23 28 be 71 f2 c9 be
       0.012787107 -0.3076407 -0.16419923 -0.3944278
0001a0 cd 9d bb be 43 ad 0d 3e 30 ec b8 3e 6e c0 f9 3d
       -0.3664383 0.13835625 0.36117697 0.12194906
0001b0 b6 fe b2 be 05 75 83 3e 96 57 88 3e cc 98 4b be
       -0.34959954 0.25675216 0.26629323 -0.19882506
0001c0 f0 79 b6 bc fe ff 32 be c5 5a 02 be 0a e8 58 3e
       -0.022274941 -0.17480466 -0.12729938 0.21182266
0001d0 cf 56 87 be 71 f1 2e 3d 7a 6b 0e 3d 1a 17 15 3c
       -0.26433417 0.042710725 0.034770466 0.009099746
0001e0 34 ee 87 3b e2 5e 91 bc 1f 17 d1 3d 16 68 a0 3e
       0.004148269 -0.017745439 0.10209488 0.3132941
0001f0 62 45 02 3f 6a d0 52 3e 61 3f 7b 3c 44 f7 8f 3e
       0.5088712 0.20587316 0.015334935 0.28118336
000200 71 c6 1d bd 56 fd 89 3d 80 72 8a be b3 9d 0a be
       -0.038519327 0.06737773 -0.27040482 -0.1353672
000210 28 45 e9 be b2 b6 60 3e 50 b9 3e be 8d 80 4a be
       -0.45560575 0.21944693 -0.18625379 -0.197756
000220 21 c8 cc bd b5 5c af 3d 18 de 42 be ea 16 83 bc
       -0.09999109 0.08562604 -0.19030035 -0.016002137
000230 3c f1 83 3e 29 c6 96 bd 0d a6 4f be 58 60 3c 3d
       0.25769985 -0.07362015 -0.20278187 0.045990318
000240 96 b6 c7 3d ef 41 72 3e 9a fe da ba 12 d5 7f 3e
       0.097516224 0.23657964 -0.0016707957 0.24983624
000250 74 bf 11 3e 0d 57 6c bd 8b 7a 78 bd a1 bb dc 3d
       0.1423319 -0.057700206 -0.06066374 0.10777975
000260 d7 02 34 be 58 0b 1d 3e c3 d7 78 be 6a 48 e9 bd
       -0.17579208 0.15336359 -0.24301057 -0.11390765
000270 83 fb b5 bd 8f 5f 16 3e 3e 41 a0 3c b9 aa 8b 3e
       -0.08885863 0.1468489 0.01956236 0.2727869
000280 36 c4 05 bd e7 e4 b0 3b 0b d5 0e be 1d cb c8 bd
       -0.032657824 0.005398381 -0.13948457 -0.09804366
000290 37 c0 80 3c 2f 07 30 be 36 19 c2 be 25 36 c1 be
       0.015716655 -0.1719024 -0.3790986 -0.37736621
0002a0 3e 65 97 bd 0f ef b1 3d 85 49 e5 3e 78 ea 65 be
       -0.07392357 0.08688175 0.44782653 -0.22452724
0002b0 79 c7 25 3d ff a0 dd 3d 97 fc 49 bb ae c1 9c 3e
       0.040473435 0.10821723 -0.0030820721 0.30616516
0002c0 01 6a 9a 3e d1 97 32 3e a0 c0 8b 36 e4 8a 43 be
       0.30159 0.17440726 4.1649473e-06 -0.19095951
0002d0 df fc a8 3e b0 18 c5 3e 34 c1 9b be 37 dd 6a bd
       0.33005425 0.38495398 -0.3042084 -0.057339873
0002e0 fc a6 37 3d fc f3 d5 3d 60 1c 30 3e e5 74 6b bd
       0.044836983 0.10446927 0.17198324 -0.057484526
0002f0 48 c7 88 bd c7 2b b9 3e 45 e2 1f be a2 d8 f7 be
       -0.06678635 0.36166212 -0.15613659 -0.48407465
000300 90 b5 30 3d 5c 27 23 3e ef 42 42 be 7c 4f 49 be
       0.0431419 0.15932983 -0.18970846 -0.19659227
000310 35 95 c4 ba d9 80 35 3e 29 66 e1 bd d3 c2 54 3e
       -0.001499808 0.17724933 -0.11005814 0.20777445
000320 09 46 fa 3e fc 7d 35 3e 4d db 59 3e 67 0b 1a 3e
       0.48881558 0.1772384 0.21275063 0.15043412
000330 d4 56 b8 bc 55 05 50 3d e7 68 06 3e ac ae 92 bd
       -0.02250234 0.050786335 0.13125955 -0.07162222
000340 a7 ca 82 be 2d 78 a4 be c8 09 5a 3e 6b 67 a0 3d
       -0.25545236 -0.32122937 0.21292794 0.078322254
000350 41 67 5d be 52 31 6f be 73 b7 57 be 1f 3f 15 be
       -0.2162142 -0.23358658 -0.21066074 -0.1457486
000360 b6 54 0d 3e 8e 43 51 3e a6 41 de 3d 5d ad 36 bd
       0.13801846 0.20435926 0.10852365 -0.044598926
000370 e7 96 d1 be ee 16 7e 3e ec 21 b0 3e 2c 68 30 be
       -0.40935442 0.24813434 0.3440088 -0.17227238
000380 25 46 ce 3e bf c3 c3 3e 1f 55 18 be 63 54 4e 3e
       0.4028789 0.3823528 -0.14876221 0.20149378
000390 37 d1 cb 3d 4f 99 4f 3e 76 3a 78 3d 31 27 ad 3e
       0.09952014 0.20273326 0.060602628 0.33818963
0003a0 0e 3e 48 3e 91 d3 7a 3c 7e e9 39 be 57 5f ed 3c
       0.19554922 0.01530923 -0.18155476 0.028976126
0003b0 be b0 30 3e 8f ec 2f be 8e 41 97 be 78 12 1d 3b
       0.17254922 -0.17180084 -0.29542202 0.0023967307
0003c0 0d bb 15 3e f9 04 8a 3d 15 a5 39 3e 15 42 d8 bc
       0.14622135 0.0673923 0.1812938 -0.026398698
0003d0 a7 e7 79 bc ed d5 b9 3d 61 a6 0d be f2 2c 26 be
       -0.015252984 0.09074006 -0.13833 -0.16228083
0003e0 c5 7c ca bd d5 23 29 be da 6c 83 3d f2 59 46 be
       -0.09887079 -0.16517575 0.06417246 -0.19370249
0003f0 85 fb f6 be 51 0a 48 3c dc 3e 65 bd 5c 5d 35 be
       -0.4823877 0.012209491 -0.05596815 -0.17711395

pointer.gru.weight_ih_l0 f4 [384, 128]
000000 52 02 3a be be 28 d0 bd ee 3d b1 bd a2 a8 f9 3d
       -0.18164948 -0.10164021 -0.0865439 0.12190367
000010 4b 99 04 3e 51 dd 83 3e 26 c6 bb 3d ec 24 8f 3e
       0.12949102 0.2575479 0.09168653 0.27957857
000020 51 4c 2a be 25 3f 74 be 7e 08 0c 3b b1 97 80 3e
       -0.16630675 -0.23852213 0.0021367366 0.2511573
000030 5d a6 16 3d 74 2a 19 bd 41 fa d7 bc 8a 92 12 3e
       0.03677975 -0.037394002 -0.026364448 0.14313713
000040 fc a8 f2 bd 02 35 dc 3d 75 04 4d bd 67 41 27 bd
       -0.118486375 0.10752298 -0.05005308 -0.040833857
000050 f5 7c 27 bc 4e 9e 2e 3e 3b db 2a 3e 96 e8 6e bd
       -0.010222663 0.17052576 0.16685192 -0.05832728
000060 38 66 b7 bd eb b1 c2 3a 67 d9 4b 3e 51 ab 26 3e
       -0.089550436 0.0014854049 0.19907151 0.1627629
000070 28 5e 0d 3d 82 e1 21 bd 30 51 5b bd 4e 97 2f be
       0.034513623 -0.0395217 -0.053544223 -0.17147562
000080 da dd c4 bc bd cf d8 bd 69 5a 1e 3e ed 85 07 3c
       -0.024031568 -0.10586498 0.15464176 0.0082716765
000090 94 31 f6 3d d8 4e 26 bc c7 53 22 3d 9b 39 ca 3d
       0.12021175 -0.010150634 0.039630678 0.098742686
0000a0 21 d8 0b 3e 1e 81 87 3c 39 64 b5 3c fc 72 a0 3d
       0.13656665 0.01654106 0.022142516 0.078344315
0000b0 48 5e 2b 3e 52 df 29 3e c3 77 9c 3d 42 77 24 bc
       0.16735184 0.16589096 0.0764003 -0.010038199
0000c0 f7 d4 06 3e 82 83 63 be 1b 21 b7 3d 80 51 27 bc
       0.13167177 -0.22218135 0.08941861 -0.010212302
0000d0 36 66 66 be cb fc 06 be b5 92 2a 3e be df d9 3d
       -0.22499928 -0.1318237 0.16657527 0.106383786
0000e0 5b 94 03 3e 42 d0 1f 3e 1e 68 c3 3d f9 ae a1 3d
       0.12849562 0.15606788 0.09541343 0.078947015
0000f0 ec 1e f0 3d 3a 7d f0 bd 78 b0 61 be e5 7c 9f 3e
       0.11724648 -0.11742635 -0.22039974 0.31149974
000100 83 95 96 3e 20 29 af bd a8 03 29 bd ea df b9 bd
       0.29410943 -0.08552766 -0.041263252 -0.09075911
000110 e4 d4 9d 3e 9d 89 d8 bd 1f fa c1 bd c5 d3 1d 3d
       0.30826485 -0.10573123 -0.09471535 0.038532037
000120 47 76 8a 3e 3d 85 07 be 70 7e 6a be 16 80 8b 3d
       0.27043363 -0.1323442 -0.22899795 0.0681154
000130 ec a3 55 be b7 2f 40 3d cc 0a 20 bc 6d a1 8f 3d
       -0.20863312 0.046920504 -0.009768199 0.070132114
000140 fe 8f b0 bd 79 3b 42 be 2c e5 c9 3d 5e 13 8d 3e
       -0.08621214 -0.18968 0.09858164 0.27553838
000150 aa d2 36 be 5f 75 9c 3e a6 76 af 3d 69 98 22 3e
       -0.178538 0.30558297 0.08567552 0.15878452
000160 7e 2a 02 3e 20 00 0f bd ab fd 14 bd 71 14 0d bd
       0.12711522 -0.03491223 -0.03637473 -0.034443323
000170 43 d8 c0 bd 52 f5 0d 3e 54 bc 6a 3b 93 91 41 3b
       -0.09416249 0.13863114 0.0035817819 0.0029536232
000180 83 a1 8d 3e 99 a7 0b be cc 71 7b 3e 08 0c f7 3c
       0.27662286 -0.13638152 0.24555129 0.030157104
000190 5d c1 13 3e 95 d2 2a 3e 6f 36 0e be df 0a 24 3e
       0.14429231 0.16681893 -0.13887952 0.16019772
0001a0 e6 2e 71 3e 78 dc db 3c 1f b6 6a bb 48 12 1d be
       0.23553047 0.026838526 -0.003581412 -0.15339005
0001b0 3e 27 77 bc 60 b5 a3 3d 5b e9 47 3d f0 aa 21 bd
       -0.01508504 0.07993579 0.04880653 -0.03946966
0001c0 72 1d 21 3b a7 26 cf 3d 30 10 53 3d ac 1b 1d 3e
       0.0024584201 0.10114794 0.05152911 0.15342587
0001d0 11 b8 9a bd 8d 1e c0 bc 25 df 8b be d8 09 1a 3e
       -0.07554639 -0.023452068 -0.27318683 0.15042818
0001e0 64 90 65 3c 1a 83 f6 3c bf 7f 6f bb cc 45 0c 3d
       0.014011476 0.030091811 -0.0036544648 0.03424625
0001f0 3a 2c 28 3e f6 c2 86 ba 54 b8 0b 3e 60 1d 98 3d
       0.16423121 -0.0010281492 0.13644534 0.07427478
000200 c3 c6 40 3d a6 07 65 be 99 f7 7d be 1b 3c 88 3d
       0.047064554 -0.22366199 -0.24801482 0.06652089
000210 0f 04 c3 bd 2c 70 37 3e c2 fb 31 3d 3d 2d 5e 3c
       -0.095222585 0.17913884 0.043452986 0.01356059
000220 69 88 04 3e e5 5a 37 3d 10 c3 90 3d bd 70 3d 3e
       0.12942661 0.04476442 0.07068455 0.18500037
000230 4d df 4a bb 0c 40 c7 3c eb a9 0c 3e 09 be 5f 3e
       -0.0030955852 0.024322532 0.13736694 0.21849836
000240 6a 36 1a be ee 07 46 bd ae ba a9 3d 70 fe ce bd
       -0.1505982 -0.048347406 0.082875594 -0.10107124
000250 f8 ad 91 3d 23 b4 97 3e 24 4e 61 39 a6 50 82 bd
       0.0711326 0.2962962 0.00021486782 -0.06363039
000260 45 a8 29 be f4 45 42 be 5e 63 d8 3c 03 11 29 be
       -0.16568096 -0.18971997 0.02641457 -0.16510396
000270 88 c5 af bd 22 fb c9 3d b6 59 01 3e 1e 0e 4f be
       -0.08582598 0.09862353 0.12631878 -0.20220229
000280 4f 95 8e 3d f3 97 d3 bd 00 ca 20 3e e3 59 2a 3e
       0.06962072 -0.103317164 0.15702057 0.16635852
000290 a5 21 56 3e a7 fb d0 bd e9 90 dc bd 6e 8e d1 bd
       0.20911272 -0.10204249 -0.10769827 -0.102322444
0002a0 11 11 12 be 8b db ff 3d 7d 89 28 3e d7 9e 87 3d
       -0.14264323 0.124930464 0.16458698 0.06622093
0002b0 14 84 dc bd a1 fc 2b 3e 91 23 09 be d6 f0 b1 bd
       -0.107673794 0.16795589 -0.13392474 -0.08688514
0002c0 62 eb f5 bd de 8f f1 bd e8 75 c1 bd 9f 38 2f be
       -0.12007786 -0.117950186 -0.09446317 -0.17111443
0002d0 83 31 35 3e a6 e6 42 be cc 54 fb bd 6b 3d 96 bd
       0.17694668 -0.19033298 -0.12272033 -0.07335933
0002e0 c1 4a e5 3c b5 bf 21 3d 0e f8 8d bc f4 43 e1 3c
       0.027989747 0.039489467 -0.017330196 0.027498223
0002f0 1a 51 2c be 1c be 3f 3e 91 5f 79 bd d9 97 3d 3e
       -0.16827813 0.18724865 -0.060882155 0.18514957
000300 79 94 57 3d a4 1d 1b 3c 7f 94 56 bd f3 1d 25 be
       0.05263183 0.009467516 -0.05238771 -0.16124706
000310 0b 58 19 3e f6 80 9d bd 5e da 9e bd ac e1 00 3e
       0.14974992 -0.07690613 -0.07756494 0.12586087
000320 f6 2f 4d 3e cf 08 25 3d 11 6d 7d 3d ce eb 1e 3e
       0.20037827 0.040291604 0.061871592 0.1551964
000330 cc f3 57 3d a6 cc 35 3e c9 da eb 3d 51 cf ee bc
       0.052722737 0.17753848 0.11516339 -0.02915159
000340 f2 97 5f be 3e 05 5c 3c a0 52 03 bd 3b 96 5a 3c
       -0.21835306 0.013428984 -0.03206122 0.013341482
000350 88 cd 04 3e 17 27 cd bc d3 9c 95 bd cd 66 08 be
       0.12969029 -0.025043054 -0.073053025 -0.13320465
000360 2b f1 14 3e e3 51 5b be ff 9b ca bc e9 29 f7 bc
       0.14545123 -0.21417956 -0.024732588 -0.030171352
000370 f6 06 13 be 50 33 e9 3d 0f 3a ed bc 0d cb 2d be
       -0.14358124 0.1138674 -0.028958349 -0.16971989
000380 3b 26 86 bd a3 29 67 be 04 0d 30 3e 02 42 4b 3e
       -0.06550261 -0.22574477 0.17192465 0.19849399
000390 bb f6 59 3e 9e a1 3d 3d de 75 32 bd 84 0b 5a 3d
       0.21285526 0.04629671 -0.04356944 0.05323364
0003a0 ab 6e f0 3d 1b 44 7d bd 7c f2 3a 3d e5 68 23 3e
       0.11739858 -0.06183253 0.045641407 0.15957983
0003b0 66 77 b4 bd bd cd 97 3d 30 53 5e bb 35 34 14 3d
       -0.08811836 0.07412288 -0.0033924095 0.0361826
0003c0 ef 86 0b 3d d5 78 0e bd 57 fa 67 3c 98 17 86 3d
       0.03406423 -0.034783203 0.014158807 0.06547469
0003d0 0d ab 39 3e 95 5e 15 be 2a 81 59 3e fe 17 2b 3d
       0.18131657 -0.14586861 0.21240678 0.041770928
0003e0 de 73 3f 3e 38 c3 14 3e ea b9 8d 3d 50 1e d9 bd
       0.18696544 0.14527595 0.06920226 -0.10601485
0003f0 68 9e b5 bd 36 37 95 3d f2 26 54 bd 9e 05 46 3e
       -0.08868104 0.07285921 -0.051794954 0.1933808
