dynamic_vrp/drl/vrp/20/22_55_44.077690/critic.pt (torch_old, 27060 bytes, 9 tensors)

static_encoder.conv.weight f4 [128, 2, 1]
00000000: 3ae2 6b3e a26f d1bd 0110 22be 7e19 823e
00000010: 386e ecbe 6382 d83d adec 963e c0d7 e23e
00000020: 8cda f03d d502 d939 f2de 38bc a2a9 893e
00000030: 7d2c e8be d8d3 94bd 7291 633a 1044 773b
00000040: fd34 f7bd fe3a a73e cbf3 b83e 553a 7cbe
00000050: b0c4 7a3e 8e12 1ebd d4d7 823e c1d1 e1bc
00000060: 332c 523d d24c 9a3e f23d 5b3d 867d 8abe
00000070: a1f8 f6bd a668 a83e 0f22 823d 4f6c b23e
00000080: b3e2 3ebe 094e 73bd 3053 aabe 641b 40be
00000090: cddf 45bd 388f 9e3d 6840 a8be 7031 d73d
000000a0: ac58 f0bd 22d8 96be 85d4 8ebe 4b32 9d3e
000000b0: 104f dabe 7c85 b0bd 5ac1 403e 8128 dbbe
000000c0: 9b28 6f3c a7be 8ebe 7f8b cd3e 81a3 b53e
000000d0: 7b73 43be 784a 853d dd58 3e3e db79 923e
000000e0: 874d d23d 8323 2ebb 4f96 953e 8c93 0bbc
000000f0: e407 ca3c 6f37 3dbe c40b dfbd 784b debe
00000100: d751 66be f03a 0dbf 2c04 7a3e 3ed4 afbd
00000110: 28fb 2abd cdc3 17be 5e09 3fbe 1645 ebbc
00000120: ebb5 43bd 9c9c cfbe 9baa dd3c 1660 b1be
00000130: 1bc7 9abe 0ca3 c83c 6fc8 223e 10e6 14be
00000140: 524f a2be fb09 e0bd 98e6 683e 7469 fb3d
00000150: d8c3 84be 4398 563e cac4 143e 7633 04bf
00000160: 9c4b c6be bf9a 75be feac 353e 988f a8be
00000170: 3f4f 693c ab16 953e e6cd ce3e 1636 ca3e
00000180: 4029 d2be 134c 2ebe ff1d a13d 8933 e4bc
00000190: ab17 43be 8191 06bf 8625 68bd 2e54 f63e
000001a0: 5520 993e 786c 053e d9e1 603e 5057 f73e
000001b0: c590 943c 96dc b73c 4a98 72be 9ccf 02bd
000001c0: cd76 b3be b83b b7be 9cfb 2b3e 20e4 d8bc
000001d0: 4262 13bd f73b 823e af9d 643d 2bc1 c33e
000001e0: 95d5 a73e 6c64 c93e 4f29 1e3e 9b9e 393e
000001f0: 8e0d 243e 426b 143e c685 61be 7d4b 08bf
00000200: afe9 b93e 52f2 263e 8afc 07bc 0fe1 72bd
00000210: fdd7 33be bb9d 2cbe 4d05 8f3d bb5c 233f
00000220: b138 62bd 4e29 c13e d2f1 083e 677f 113e
00000230: 5cfd e33c c4f2 023f b1d4 dcbe 78ff 8b3c
00000240: bd7e a9be 1970 65be 1ea7 0bbd 3d53 4bbe
00000250: 233d d53d dca0 febd 09a6 b83e 8789 41be
00000260: 0049 efbe 73eb 583c cb70 2d3e 4f81 9bbe
00000270: 5f6b 8ebe 2445 c33e cd26 883e da9b 98be
00000280: 8c9a 71be 17b5 c5be 680a 783e 18aa 78be
00000290: ba38 8a3e 91fd 9abe 4cf0 fabc 483a 813e
000002a0: 595f dc3d 6245 783e 062b d8be 765e 233e
000002b0: 4f36 35bd a8ab c03e c843 7dbe 6f10 343e
000002c0: 7f16 5cbd 1b1a fb3d e8d4 a23c ee17 aabd
000002d0: ca2e ccbe 0699 93be b854 bcbe ea0a 08be
000002e0: 883d ad3e 1a79 10be b5f8 df3e e7b8 a1bb
000002f0: db77 ce3e 07d4 eb3d 24ae c3bd e476 b83e
00000300: 44af 9cbe c09b a73e 0cec c3bc 5c4a 1d3e
00000310: 4fc9 1fbe 525c 81bd 27eb 053d d27f 5a3e
00000320: a02f e6be e3ab acbe 31e9 a93e 3ea3 c13e
00000330: f377 8d3e c035 173e 06d7 083f a47b 7c3b
00000340: 020f 48bd 0b91 d53c f466 3bbe df25 883c
00000350: 41d3 333d f113 093f b77e d33d 9c62 533e
00000360: d29e ae3e 26f6 fc3d dec5 28bd 3e73 33be
00000370: 7f03 b23e f99a 1a3f 8490 9ebe b346 fabe
00000380: 6e11 d7bd e2ca 04be 1f02 9d3e 1bdf 82be
00000390: 51ed 26be d6ea b83e fdc6 6f3d 5194 a0be
000003a0: 5823 983b cfbc 423e a634 67bd c8e4 c2be
000003b0: 89f4 20be d624 4f3d b0f9 cabe 8192 c03d
000003c0: f944 e4bd 4d45 45be 41d1 fc3d 737c 7bbd
000003d0: 54ba d0bd 1d8e 933e 6475 803e 0719 203e
000003e0: 77b0 7a3e 0e45 abbe d1dc bc3d 1879 613e
000003f0: 68e8 44be b679 ebbe 54d8 8bbe 2147 afbe
0.23035517 -0.102263704 -0.15826418 0.25410074 -0.4617784 0.10571744 0.29477444 0.4430523
0.117604345 0.00041391575 -0.011283623 0.26887232 -0.45346442 -0.072669685 0.0008681036 0.0037729777
-0.120706536 0.32662195 0.361235 -0.24631627 0.24489093 -0.038591914 0.2555529 -0.027565839
0.051311683 0.30136734 0.053525873 -0.27048892 -0.12059141 0.3289234 0.063541524 0.34848258
-0.18641166 -0.059400592 -0.33266592 -0.18760449 -0.048309136 0.077421606 -0.32861638 0.10507476
-0.11735663 -0.2946177 -0.27896515 0.30702433 -0.42638445 -0.0861921 0.18823758 -0.4280434
0.014597083 -0.2787983 0.4014549 0.35476306 -0.19087021 0.065083444 0.18588586 0.28608593
0.102686934 -0.002657146 0.2921624 -0.008519065 0.024661966 -0.18478177 -0.10890916 -0.43416953
-0.22492157 -0.55168056 0.24415654 -0.08585404 -0.041743428 -0.14820786 -0.18655917 -0.028719466
-0.047780912 -0.4054917 0.02705889 -0.3464362 -0.3023003 0.02449181 0.15896772 -0.14540887
-0.31701142 -0.109394036 0.22744215 0.12275973 -0.25930667 0.2095652 0.14528194 -0.51641023
-0.3872956 -0.23984812 0.17741773 -0.32922053 0.014240085 0.29118857 0.40391463 0.3949439
-0.41047096 -0.17021208 0.078670494 -0.027856605 -0.19051997 -0.5256577 -0.05667641 0.481111
0.2990748 0.13029659 0.21961154 0.48308802 0.018135438 0.02244405 -0.23690906 -0.031936273
-0.35051575 -0.3578775 0.167952 -0.026475966 -0.035982378 0.25436375 0.05581444 0.38233313
0.32780138 0.39334428 0.15445445 0.1812691 0.16020796 0.1449404 -0.22023687 -0.53240186
0.363111 0.16303375 -0.008299956 -0.059296664 -0.17562862 -0.16857044 0.06983433 0.6381337
-0.055229846 0.37726825 0.13373497 0.14208756 0.027830772 0.5115168 -0.4313102 0.01708959
-0.33104506 -0.22406043 -0.034094922 -0.19855972 0.104120515 -0.12433025 0.36064175 -0.18900119
-0.46735382 0.013239729 0.16937558 -0.30372092 -0.27816293 0.38138688 0.26592103 -0.29806405
-0.23594111 -0.38614723 0.2422272 -0.24283636 0.26996404 -0.3027158 -0.03063216 0.25239778
0.107603736 0.24245217 -0.42220324 0.15954003 -0.044241246 0.37630963 -0.24732888 0.17584394
-0.05373239 0.122608386 0.019876912 -0.083053455 -0.39879447 -0.28827685 -0.36783385 -0.13285413
0.33836007 -0.14108697 0.43744436 -0.004935372 0.40325817 0.115150504 -0.09554699 0.36028206
-0.30602467 0.32736015 -0.023916267 0.15360397 -0.15604137 -0.06316437 0.032694962 0.21337822
-0.4495821 -0.3372489 0.33185723 0.37819856 0.27630576 0.14766598 0.534531 0.0038525844
-0.048842438 0.026070138 -0.18300992 0.01661962 0.04390264 0.53546053 0.10326903 0.20643085
0.34105545 0.123516366 -0.041204326 -0.1752443 0.34768292 0.6039272 -0.30969632 -0.48882064
-0.10501371 -0.12968019 0.3066568 -0.2556084 -0.16301467 0.36116666 0.05853938 -0.31363156
0.004642885 0.19017337 -0.056446694 -0.3806517 -0.15718283 0.05057224 -0.3964362 0.094029434
-0.11145968 -0.19264717 0.123445995 -0.06139798 -0.10191789 0.2881936 0.25089562 0.15634547
0.24481378 -0.33451122 0.09221805 0.2201885 -0.19229281 -0.45991296 -0.27313483 -0.34233955

static_encoder.conv.bias f4 [128]
00000000: 3905 8abd 2ee4 01bd a436 5f3d 2f08 cabe
00000010: a1c8 74bd 9257 5abe 5b10 c43e a3a7 64bb
00000020: 6bb2 49be f25a 4a3c 742c 1ebf 6f41 bbbe
00000030: 4ad6 a6be 1292 c73d 54a8 b6bd 4c8b a03e
00000040: 3daf b13e 4747 5e3e 94b6 20be 6c76 723e
00000050: ef54 273e 1d64 19ba 9a95 df3d e671 123e
00000060: 6229 613e 6151 a7be 62cc b23d bcac b0be
00000070: b61b 63bd 85d2 97bd 7e97 893d bb8d 5a3c
00000080: 5d14 043f fc6c 4bbd 1fd7 df3d af33 503e
00000090: 3bda 873e 708c b03e 62f2 b63e 980b ba3e
000000a0: 0c73 b63e 7349 97be 891e 7c3d 1383 9f3e
000000b0: d56d 623e 67a4 9f3c 5ee3 1ebe 87f8 afbe
000000c0: 5fe2 323e d577 12bd a9ca db3e a154 d6be
000000d0: de1e 24be 4e03 bdbe 0c11 88bc aebc bb3e
000000e0: ea02 b53e 6a2f e03e c50d c2bd 2b75 2dbe
000000f0: 31d1 6ebe cdd2 53be 137a 0cbe 5810 a13e
00000100: 189a a8be 87db 033f 6041 d03e ff4f fbbe
00000110: 6128 94be 313d edbe 05cf 0cbe 8ad7 003f
00000120: 686f 543e 9d01 83be d0b3 793e 9713 29be
00000130: 2cb5 fe3e 9d42 b03e ee86 a0be dc22 473d
00000140: fa32 a43e 5566 3a3d 47e9 37bb f9c3 443e
00000150: 7453 5fbe 838b d33e ac45 1abe 0790 4e3e
00000160: 8f17 07bd 596f 1cbe 3628 d53e b46f b9be
00000170: a99f bfbe e03c aebd 3db5 b3be c6ed a73e
00000180: 8926 00be e327 2dbe 1eb5 d63e fd5b f0bd
00000190: 6678 ea3e 63f5 e8be cd14 62be 3b49 10be
000001a0: f275 083f 736a 8fbd b72e 43be 61fd f6bd
000001b0: a1b3 b0be a5ff 8abe c5c1 04bf bd28 bb3e
000001c0: ab64 ca3d e98e 60bd 6ecb 31be d2e6 f63e
000001d0: 335e 26be d5b7 453e ad51 b3bd f825 3f3e
000001e0: 0082 033e 5855 193d be22 8e3c 846f 7abe
000001f0: 7029 653e 2a4a f4bd 69cd 9d3e c6d1 a83e
-0.067392774 -0.03171175 0.05449547 -0.3945937 -0.059761647 -0.21322468 0.38293728 -0.0034889958
-0.19696967 0.012350785 -0.6178658 -0.3657336 -0.32585365 0.097446576 -0.08918825 0.31356275
0.3470401 0.21706878 -0.15694648 0.23677987 0.16340993 -0.0005851405 0.10917206 0.14301261
0.21988443 -0.32679275 0.08730389 -0.34506786 -0.05544635 -0.074132 0.06718348 0.013339455
0.5159357 -0.049664482 0.10929703 0.20332216 0.26533684 0.34482145 0.35731798 0.3633697
0.3563465 -0.29548225 0.061552558 0.3115469 0.2211221 0.019487573 -0.15516421 -0.343693
0.17469166 -0.035758812 0.42928055 -0.41861442 -0.160274 -0.36916584 -0.016609691 0.3666739
0.35353786 0.43786174 -0.094752826 -0.16939227 -0.23321988 -0.20685883 -0.13718443 0.31457782
-0.32930064 0.5150685 0.40674877 -0.4908447 -0.28937057 -0.46335748 -0.13750847 0.50328887
0.20745623 -0.25587168 0.24385 -0.16511379 0.49747598 0.34425822 -0.31352943 0.04861723
0.32070142 0.045507748 -0.0028062628 0.19215383 -0.21809179 0.41317376 -0.1506564 0.2017213
-0.03298145 -0.15276851 0.4163224 -0.36218035 -0.374265 -0.08507705 -0.3509921 0.32798594
-0.125147 -0.16909747 0.41935056 -0.11736295 0.45794982 -0.45499715 -0.22078247 -0.14090435
0.5330497 -0.070027255 -0.19060789 -0.12060047 -0.34512046 -0.27148166 -0.5185817 0.36554518
0.09882482 -0.05482379 -0.17362759 0.48222977 -0.16246872 0.19308408 -0.08755813 0.18666828
0.1284256 0.037434906 0.01735055 -0.24456602 0.22379088 -0.11928208 0.30820778 0.32972544

dynamic_encoder.conv.weight f4 [128, 2, 1]
00000000: 2ffc 5cbd 5a05 263f 8f15 0fbe 8dbf 993f
00000010: 349c 84be 58ff a8be a7f6 83be 1c28 55be
00000020: 0ff7 d5bb 668b ac3f fa58 9f3e d9ed a7be
00000030: 9f64 f6bd 4fe0 aabf fd1a aebe c71d febb
00000040: c2dc 333e e95e 0a3f 0766 463e bbf2 8fbf
00000050: 57ac 1b3d b64b 91be 6484 c5be dea1 31bd
00000060: 4991 cabc 1f9c 183f 83ba 7cbd 744d f4bb
00000070: 36ba 563e f9ec 13bf 82e2 62be 2d1a efbf
00000080: df21 343e fe22 68bf 86a2 b13e 3e27 17bf
00000090: e5f6 1abd 5702 d53c 63e1 81be 2903 23bc
000000a0: 2a62 223e 36f4 f93e c917 2b3e b5f3 c83b
000000b0: 3ce9 2cbd f8aa 8bbf 765f a9bb 1c88 1f3f
000000c0: 72a7 2c3e a07c a03f c022 2abe 9247 423e
000000d0: 0d01 b13c 1505 c9bc b09d 6dbe ce8f 1e3f
000000e0: 5818 47be 22a3 bfbe 9938 7ebc 70b8 87be
000000f0: 5b31 993e b95b 75bf 59d9 86be 8959 3d3e
00000100: bbaa b73b c920 09be bba8 49be 342f 84bf
00000110: 947d 78be 1e30 183e 82bf a03b 599a babf
00000120: 16a5 1ebe 25e3 20bf 40f6 72be f301 a9bf
00000130: 98b3 2fbd 779c 29bf 48b1 5ebd 68f9 97bf
00000140: a820 8bbc cfef 333f c5d5 073d 06dc dd3b
00000150: b0d8 2b3e d356 38bf 4dd8 953d edc1 b7bf
00000160: 2ab3 1fbc 49f2 fa3f b0b0 72bd 3a85 ac3e
00000170: 4531 c73d 0c36 043f 2014 5dbe ab9c dcbe
00000180: f4bd a33c ea70 2cbd 4594 183e 2ea0 5e3f
00000190: d923 5cbd 1d53 80bf debd 703e 1166 b03d
000001a0: f396 70bc e7b8 173e d8ae 283e 2393 5cbf
000001b0: 1cdc 263d 9083 683d 2bc8 233e 70ad c7bf
000001c0: 6205 ab3e 7ce0 89bb 925a f33d 6f4c 4f3f
000001d0: 62f7 613e 5f10 28ba e43c 31bd fb9b 0940
000001e0: 874b 39be e6c8 ca3e 4f2a bbbc 0ad8 a2bf
000001f0: 6e55 d53c 65ec b03f 35a7 3dbd 4a72 1f3c
00000200: 0c48 7c3d 5fff 4140 f920 ab3e ad40 d73e
00000210: 3dab 62be a5eb f93e 35a1 9cbd d91d 75bf
00000220: 86be 443e f8c4 1a3f 9703 b5bd 0124 d43d
00000230: 14c5 4d3e bdaa 71be 38d6 823e e85a 8a3f
00000240: 2aea 3ebd df2e 7f3f 335c 9f3b b3ac 95bf
00000250: 54c6 cf3d 2f9c 71be 4bd8 58be b2b9 e1bb
00000260: e9e0 5ebd bce9 00bc 27d2 fb3d aa73 0f3f
00000270: d94a 61be 4e49 35be a9f2 533d 1a9e 5abd
00000280: 33fa 88bd d8fc 8ebf 69da d1bb 722a 55bf
00000290: b6df 50be 3451 183c dff4 30be 93e6 9b3e
000002a0: 07b8 84be 9997 d33d 4d67 0f3e 30b9 cebe
000002b0: 627a 9ebd 268c 0a40 5d26 b5be 071b 8d3d
000002c0: fdce e63d 813c ccbf f5a7 323d 4f84 15bf
000002d0: 8bb6 a93d 0f56 bebf c8b4 b93d ff89 1e3e
000002e0: 3cd9 253e f94f 89bc afc6 8f3e b77e 00bc
000002f0: e7de 2cbd 434b f1bf d042 4c3e 0a70 d6bf
00000300: 6379 e33d 0496 92bf 6f05 4d3d bd49 9ebe
00000310: f851 103e ba00 9bbf 9614 803e e077 883d
00000320: 98a8 eabd b81a 77be 70bb 10bd 9d97 fbbb
00000330: 4d6b c33e d0a1 753e b348 1b3e 7eed 11bf
00000340: 182b c63d 51ae 2c3f 1084 ba3e 2c7b 19bf
00000350: d629 9bbe 0a30 6abe 583c 783d 6c15 9f3b
00000360: b13a afbe 241f 15bf fcf0 be3c e3e0 593d
00000370: 9ef1 4d3e ac8d 5c3d 590d 863d 6932 c03e
00000380: 73ad 363e 9f2c 8d3f db00 f03d 98bc e0bf
00000390: 6a50 1bbd b902 213f f497 bdbd 6ac6 283f
000003a0: 45c3 133d 69a9 8c3e 0f41 7ebe b9a1 49bf
000003b0: 4ba7 47be d73a f5bf 7818 12be eb00 053c
000003c0: b33d 853d 307e f73e bc2e 63be d43d f13f
000003d0: f51b 4fbd b425 ae3e 3b98 7a3d c099 ecbe
000003e0: fea5 07be 7ae2 febe dd04 893d 2443 163f
000003f0: 836d 0bbe 36e9 ffbf 9d57 803e cab8 2dbf
-0.05395144 0.64851916 -0.13973068 1.2011582 -0.25900424 -0.33007312 -0.25774118 -0.20816082
-0.006529696 1.3480041 0.3112257 -0.3279865 -0.12030911 -1.3349704 -0.34004965 -0.0077550146
0.17564681 0.5405107 0.19374858 -1.124595 0.038006153 -0.28378075 -0.3857757 -0.04336726
-0.02472748 0.5961322 -0.06170131 -0.007455522 0.20969471 -0.57783467 -0.22156718 -1.8679863
0.17591046 -0.90678394 0.34694308 -0.59044254 -0.037833113 0.026002092 -0.2536727 -0.009949484
0.15857759 0.4881913 0.16708292 0.0061325678 -0.042214617 -1.091155 -0.0051688505 0.6231706
0.1686075 1.2538033 -0.16614819 0.18972614 0.021606946 -0.024538556 -0.23204684 0.6193818
-0.1944288 -0.37429148 -0.015516424 -0.26507902 0.29920468 -0.9584308 -0.26337698 0.18491186
0.0056050695 -0.13391413 -0.19693272 -1.0326905 -0.24266654 0.14862105 0.004905642 -1.4578353
-0.15492663 -0.62846595 -0.2372675 -1.320372 -0.042895883 -0.6625437 -0.054368287 -1.1872988
-0.016983345 0.70287794 0.03316285 0.0067706136 0.16781878 -0.72007483 0.07316647 -1.4356056
-0.009747306 1.960519 -0.059250534 0.33695394 0.09726194 0.5164497 -0.21589708 -0.43088278
0.019988038 -0.04209987 0.1490031 0.86963165 -0.053745124 -1.0025364 0.23509929 0.086132176
-0.014684427 0.14816628 0.16472948 -0.8616201 0.040737256 0.056766093 0.15994327 -1.5599804
0.33402544 -0.004207669 0.11882509 0.80976003 0.22067025 -0.0006411131 -0.04327096 2.1501453
-0.18095218 0.39606398 -0.022847323 -1.272218 0.026041713 1.3822142 -0.04630204 0.0097318385
0.061592147 3.0312116 0.33423594 0.4204153 -0.22135635 0.48812595 -0.07647935 -0.9574867
0.19213304 0.604568 -0.08838575 0.1035843 0.2009471 -0.23600288 0.2555406 1.0808992
-0.046610035 0.99680895 0.004863286 -1.1693329 0.1014525 -0.23594736 -0.21176259 -0.0068885917
-0.05441371 -0.007868227 0.12295943 0.56035864 -0.22001208 -0.17703745 0.05174509 -0.053373434
-0.06688347 -1.1170912 -0.0064042103 -0.8326789 -0.20397839 0.009296704 -0.17280911 0.30449352
-0.25921652 0.10331649 0.1400425 -0.40375662 -0.077381864 2.164804 -0.3538083 0.06889921
0.11269949 -1.5955964 0.043617208 -0.5840501 0.082867704 -1.4870013 0.090676844 0.15482329
0.1619615 -0.016761767 0.2808127 -0.007842711 -0.042204764 -1.8851093 0.19947362 -1.6752942
0.11107137 -1.1452031 0.05005401 -0.30915633 0.14093769 -1.2109597 0.25015706 0.06663489
-0.11457938 -0.24131286 -0.035335004 -0.007677986 0.38167801 0.23987508 0.15164451 -0.5700301
0.09676188 0.67453486 0.3642888 -0.5995357 -0.30305356 -0.22869888 0.060604423 0.0048548486
-0.34224465 -0.5825064 0.02330827 0.053192984 0.20111701 0.053846046 0.065455146 0.3753846
0.17839603 1.1029242 0.11718913 -1.7557554 -0.037918486 0.6289478 -0.092574984 0.65927756
0.036074895 0.27473 -0.24829505 -0.78762394 -0.19497411 -1.9158581 -0.14267147 0.008117895
0.06505909 0.4833846 -0.22185796 1.8846993 -0.05056377 0.3401314 0.061180335 -0.46211052
-0.13246915 -0.49782163 0.06690381 0.586962 -0.13615994 -1.9993045 0.25066844 -0.6786009

dynamic_encoder.conv.bias f4 [128]
00000000: dd70 23bc e3a6 e83d d98f 023f 7a8d 8a3e
00000010: 1e44 1ebe b040 9ebe 5580 b83e 6e7f ad3e
00000020: 1fe7 72be 1851 46be a30a debb 0f6c c53e
00000030: ba50 a63e d676 773d 69af 54be 7a41 6d3e
00000040: 9b30 34be a6f7 aebe baec 8abe f471 073f
00000050: 72e9 56be 9bc1 29be 627f 323d 2275 acbd
00000060: 7158 42be 7bfd de3e 6888 5a3e 94ba 6d3e
00000070: 23d6 483e 5c41 903c 00b0 9abe 1957 d03e
00000080: 569d 7b3d a549 983e 0e9c 0d3f 8b4f 1d3b
00000090: 296e 923e e2ff ca3e 2a5a 013e 32d9 0fbd
000000a0: 532c b93c d42f dcbc 5229 21be 2089 f3bd
000000b0: 9789 dcbb 8bd1 ea3d 4eb2 26be 22ca 813e
000000c0: 74a2 05bd 55dc c3be 3343 293c 5c1a 7cbe
000000d0: 4729 b6bd 1931 81be b3ae db3c 2291 18be
000000e0: 3142 a9be e479 39be fdde 61be f3a7 b23c
000000f0: c9d5 3d3e d35c 3f3e 3fb9 1bbd c8c4 433d
00000100: 7eda 9cbd f48e d6be 22db 433e ae5a f73d
00000110: 19dd febe ba99 34be 4241 f4be aa5d bbbe
00000120: 44e1 c13c 762f 03be ee8c 03bf c56d 573e
00000130: 7c85 5c3d 31a3 cbbe 90e3 623e d247 fb3e
00000140: 6594 823e fe6c 00bf ff5c 523e 5585 243e
00000150: 1e78 da3e b354 03be 8012 883d 54ea e13e
00000160: 3381 afbd 231c 673d 2bb2 5fbe b091 bbbe
00000170: 0fa8 28be 029e 90be b1ca 863d 2e8c 4abe
00000180: ad99 1dbe 1654 bbbe 2475 7abd 9d41 81be
00000190: 2a58 073e 0bd0 0b3d 35fd c5be ef63 07bf
000001a0: 03a1 26be 2aed 00bf d04b 063f 9936 79bd
000001b0: 0e16 c43e 6591 c1bc 7098 51be 941e d4bd
000001c0: 5bf9 8abe c1f0 f1bd fbc7 8338 3ade ee3e
000001d0: ff06 36bd 219a a53e 0f2f 573e ea5b 133e
000001e0: 5b7d b3be 8ba8 3e3e 6321 113f f8d3 fe3e
000001f0: e671 6c3e e5a7 8dbe 1b21 8a3e fc8b 69be
-0.009975639 0.11359956 0.51000744 0.27061063 -0.15455672 -0.30908728 0.3603541 0.33886284
-0.23720978 -0.19366872 -0.0067761703 0.38559005 0.32483464 0.060416065 -0.20770039 0.23169509
-0.17596667 -0.34173316 -0.27133733 0.52908254 -0.2098749 -0.16577761 0.043578513 -0.08420779
-0.1897905 0.43552765 0.21341097 0.23215705 0.19612937 0.01760929 -0.30212402 0.4069145
0.061429344 0.29743686 0.55316246 0.002400371 0.2859967 0.39648348 0.12632051 -0.035119243
0.022604143 -0.026878275 -0.15738419 -0.11891389 -0.006730269 0.114657484 -0.16278955 0.25349528
-0.03262563 -0.38254037 0.010330963 -0.2461943 -0.08894592 -0.2523277 0.026816702 -0.14899114
-0.33058313 -0.18112904 -0.2205772 0.0218086 0.18538584 0.18687753 -0.03801846 0.047795087
-0.076588616 -0.4190594 0.19126561 0.12077843 -0.4977806 -0.17636767 -0.47706038 -0.36594898
0.023666985 -0.12811074 -0.51386917 0.21037968 0.053838238 -0.39772943 0.2215712 0.49078232
0.2550384 -0.5016631 0.20543288 0.16066487 0.42669767 -0.12825279 0.066441536 0.4412409
-0.08569565 0.056423318 -0.2184531 -0.36634588 -0.1647036 -0.2824555 0.06581629 -0.19780037
-0.15390654 -0.3658759 -0.06114687 -0.2524537 0.13217226 0.034133952 -0.38669744 -0.5288686
-0.16272359 -0.50361884 0.5245943 -0.060843084 0.38298076 -0.0236289 -0.20468307 -0.10357395
-0.27143368 -0.11813498 6.283816e-05 0.4665392 -0.044440266 0.32344154 0.21014045 0.14390531
-0.35056576 0.18618982 0.5669157 0.49771094 0.23090324 -0.27667156 0.26978382 -0.22807306

fc1.weight f4 [20, 256, 1]
00000000: f7a2 09bd 8af2 733d 51ea 91bd 23a7 1abd
00000010: dc6c d33d 6a7c e43d 5f67 60bb 2f24 ca3b
00000020: 6658 a9bd 8eba b8bd afb6 8b3c fdf1 99bd
00000030: 173b e1bc 611c 993c 642f aa3d 6f96 a43c
00000040: 67d1 d2bd c487 18be 9718 96bb 860d aabd
00000050: 3e80 2b3d fbf2 01bd 8909 cb3c 5ed4 97bd
00000060: 74be 14be dd72 0dbe b9b2 f3bd 4cdf b03d
00000070: 0578 fdbc 7172 273d a32c e3bd 708c 353c
00000080: ec01 1bbd 1213 b0bd 2a22 41bd c8eb c33c
00000090: eed6 f8bd 8e39 81bc 6098 433d 0e83 09be
000000a0: 0df4 ae3d f10e 5d3d 9b4c 1fbd 2833 1cbe
000000b0: 25bb 1f3e 6e33 833d 5ee5 ef3d 2462 eebd
000000c0: 7b3f be3d 3bdc c53d 1e6c 14be 046d 1a3e
000000d0: 609b be3d 3081 863d c613 f9bd 64bf e8bd
000000e0: d7a0 95bc d767 053e 9c69 9dbd 06f4 8cbc
000000f0: 6184 18be e679 c0bc a4a7 753d eb41 c1bc
00000100: ad7b b1bd a940 4cbd 2b19 c53c ea68 9c3d
00000110: a701 2dbd 0ee8 c13d fc29 9fbd 6d7d 203d
00000120: 9b47 d03d 93b0 01be fc6d 27bd eca0 0b3e
00000130: ded9 9abd 6fe4 23be 9d7d b33d 9ab8 05bd
00000140: 7740 ee3d f250 b83d b9ef da3d c0d1 5d3d
00000150: afe1 e73d e76d 023d dde8 f53d 7afc 66bc
00000160: f320 bdbd 0b2d a6bd d33a 71bd 98ab 5a3d
00000170: 0b75 e53d 0788 21be 3de8 023c 32e2 0cbe
00000180: 9da6 fcbc 7609 f53b 13e5 6fbd ad34 0cbe
00000190: 83c1 353d 48c7 343d 1d9f e6bd 3ff7 033e
000001a0: b7e4 1f3d 9754 2b3d 00a6 5dbd ca81 ec3d
000001b0: 9277 9fbd 5c6a d1bc cd44 c33d 9ef2 093e
000001c0: 4aa1 de3d b998 c13d 8005 e23d 00db cc3c
000001d0: d13d a83d 7980 5c3c e56a 273d 642f d13b
000001e0: 038b e3bd 6a96 b5bd 058c e5bd 2e95 603d
000001f0: 3047 4abd 735c 12be e938 1bbe 72b5 563d
00000200: 2c79 c03d 30e0 5139 1565 c9bd 7609 10bd
00000210: b79a 1b3e 2fc2 94bd d368 c43c 1dd0 013e
00000220: 0b07 b8bd 1d70 edbb efe6 fb39 f288 c2bc
00000230: 3418 0b3d 1819 0f3e 189c 24bc 7d3e 1f3e
00000240: fa14 9fbd 3220 193e c95a 39bd f3c2 a13b
00000250: 56aa 273e 21c0 a8bd c939 363d 280e 13bc
00000260: 818f ddbd 5f05 fcbd a383 c1bd 3d80 1d3c
00000270: 7509 1dbe a5ec 6c3d c3e4 fabc b595 00be
00000280: 7cd0 8fbd 7349 30bd 6e48 d33c 7870 be3c
00000290: 287b 30bd f9c0 f13d 49de 22bc d93e be3d
000002a0: cb0a c1bd 349e 03bc 66b5 05be ef32 ec3d
000002b0: cabd 3d3d 911a d4bd 3616 8a3d 2fe6 20be
000002c0: 8a14 023e 4c0e 123e 5729 d8bb 1335 ccbd
000002d0: 82d3 a73d 3843 03be fc44 18be 29a5 aa3b
000002e0: 5fba 8f3d 7d84 943d 2cf7 3bba d10f 523d
000002f0: 1f48 573c f98c f63d 43d5 3e3c 9770 e0bc
00000300: 6f2c c13d 785d 083e 48c0 4f3d a9e7 053e
00000310: 83f7 5a3d 23f6 80bd 71b9 003e b57e 133e
00000320: a024 a83d 75d6 ae3c 6d29 8fbd 16f8 d9bd
00000330: b19b 5d3d 385a d3bd 0ef9 bbbb 1ebe 01be
00000340: 3090 f0bd 82f2 e4bd 7758 08be ff72 71bb
00000350: d7c7 f5bd 8360 5cbd 3cda 90bd c6a1 c5bb
00000360: 846e d9bd 1b4f fe3d d57e abbd c344 633c
00000370: 1de4 fe3d de22 703d 7540 98bd 96df e63b
00000380: 0d0c f43b 3fb9 183e 7c9e f03d 4446 103e
00000390: 3be3 543c dff3 113e 9fb9 99bd 9d64 bbbd
000003a0: 8093 fcbd db3c a63b 00b7 b43d 03fb 243e
000003b0: 73e6 ec3d 1ac9 f5bd e3ff 2d3d 3b9c e83d
000003c0: 0eaa e83c d000 3f3c 3a3a 063e d85d ea3d
000003d0: e80e 43bd 5e07 b83d 29b8 ff3d f776 b7bd
000003e0: b736 7cbd 61c1 453d 306c cbbc 3cf1 033e
000003f0: 19b8 92bd 9188 af3d d96b f03d 9720 ebbd
-0.03360268 0.059557475 -0.071247704 -0.03775705 0.10323498 0.111565426 -0.0034241301 0.006168864
-0.08268814 -0.090199575 0.017054884 -0.07516859 -0.027493997 0.01869029 0.0830982 0.020091264
-0.102938466 -0.1489554 -0.004580568 -0.08303361 0.04187035 -0.031725865 0.02478482 -0.07413553
-0.14525777 -0.13813348 -0.11899323 0.086363405 -0.030941019 0.040880624 -0.11092498 0.011080846
-0.03784363 -0.085973874 -0.047151722 0.02391614 -0.121503696 -0.015774515 0.047752738 -0.134289
0.08542643 0.053969327 -0.038891416 -0.1525389 0.15598734 0.06406294 0.1171367 -0.116398126
0.09289452 0.09661146 -0.14494368 0.15080649 0.09306979 0.06567609 -0.121619746 -0.1136463
-0.018265171 0.13027893 -0.07686159 -0.017206203 -0.14894249 -0.023495626 0.059974328 -0.023591002
-0.086661674 -0.049866352 0.024059853 0.07637198 -0.042237904 0.09468089 -0.0777168 0.039182115
0.10169908 -0.12665014 -0.040876374 0.13635606 -0.07561086 -0.16005109 0.08764193 -0.032646753
0.116333894 0.08999814 0.10690255 0.05415511 0.113223426 0.031843092 0.12007306 -0.014098281
-0.092348 -0.0811406 -0.05889399 0.0533863 0.11203965 -0.15774547 0.00798994 -0.13758162
-0.030841166 0.0074779345 -0.05856807 -0.13691969 0.044374 0.044135362 -0.11260817 0.12887286
0.03903648 0.041828718 -0.054113388 0.11548193 -0.07786478 -0.025563411 0.09534607 0.13471457
0.10870607 0.09452958 0.11036205 0.025006771 0.082149155 0.013458365 0.040873427 0.006383823
-0.11110499 -0.0886658 -0.11208347 0.05482977 -0.049384296 -0.14293079 -0.15158428 0.052419133
0.09398112 0.0002001531 -0.09833733 -0.035165273 0.15195738 -0.072636 0.023975765 0.12677045
-0.08985718 -0.007246031 0.0004804651 -0.023746941 0.03395863 0.13974416 -0.010046981 0.15551181
-0.07767673 0.14953688 -0.045252595 0.00493657 0.16373572 -0.08239771 0.044488702 -0.008975543
-0.10818387 -0.12305712 -0.09448936 0.009613094 -0.15335639 0.05784287 -0.03062666 -0.12557109
-0.07022187 -0.043038797 0.025791373 0.023246989 -0.0430862 0.11804385 -0.009940692 0.09289331
-0.09425887 -0.008033324 -0.1305748 0.11533152 0.046323575 -0.1035663 0.06742518 -0.15712808
0.12703148 0.14263266 -0.006596725 -0.099710606 0.08194639 -0.1281861 -0.14870065 0.005207677
0.07017969 0.07251833 -0.00071703154 0.051284615 0.013139754 0.12038607 0.011647525 -0.027397437
0.09432303 0.13316905 0.050720483 0.13076653 0.0534587 -0.06296947 0.1257074 0.14403804
0.08210111 0.021342495 -0.06990323 -0.10643022 0.054103557 -0.10319942 -0.0057364767 -0.1267018
-0.117462516 -0.11179067 -0.13314997 -0.0036842225 -0.12001007 -0.05380298 -0.07072875 -0.006031248
-0.10616782 0.12417432 -0.08373801 0.013871375 0.12445853 0.058627002 -0.07434169 0.0070456965
0.0074477256 0.14914416 0.117489785 0.14089304 0.012993629 0.14253186 -0.075061075 -0.0915005
-0.12332821 0.0050731725 0.08823967 0.16111378 0.11567392 -0.12001248 0.04248036 0.113579236
0.0284014 0.011657909 0.13108149 0.114436805 -0.047621638 0.0898578 0.12486298 -0.089582376
-0.061575618 0.048280124 -0.024831861 0.12884992 -0.0716402 0.0857097 0.1173932 -0.114808254

fc1.bias f4 [20]
00000000: aa62 913c e9bb ab3c 914c 70bd 4b21 5cbc
00000010: babf 8c3d ca18 7a3c 0d62 a5bc 10d7 8dbc
00000020: b0e0 063d 1ab9 8b3b bc26 c93d cc34 e13c
00000030: c494 ef3a d7cc 5c3d d8ee 8b3c 1802 93bc
00000040: 6daf cf3b fc94 b53c 955f 403c bfbb 51bd
0.017747242 0.020963626 -0.05866677 -0.013435672 0.068725064 0.015264699 -0.020188356 -0.017314464
0.032929122 0.004264009 0.09821841 0.027490996 0.0018278589 0.053906288 0.017081663 -0.017945334
0.006338051 0.022165768 0.0117415385 -0.05120444

fc2.weight f4 [20, 20, 1]
00000000: de6b ad3e 3a6b ccbb c03b 033c a899 ecbd
00000010: b90f 913e e82f 6abe 700e 66bd 407c 5abc
00000020: 9d3b 11be 1c1a c83d c8ef b8be a077 683c
00000030: c932 69be 89b1 aabe 7060 d6bd d3cd 97be
00000040: b436 9b3e 08aa aebd 4316 53be bc41 e43d
00000050: 52e0 8b3e c6db 833e 2c79 043d 0d1c 663e
00000060: 5672 133e 8b02 c0be b903 b93a d4fd bdbd
00000070: 188c 61be 124b c2be 33eb 0b3e 20d7 693e
00000080: 2b5b c6bd f9dc ac3e c823 d7bd a2d1 be3c
00000090: b6ef 483e 040b 023e 7869 0bbf 9f77 a8be
000000a0: 8587 a8be a0ab 8abd 0315 97bd a992 68be
000000b0: cf99 883e 1080 d33d 9764 4fbe 0aad bf3e
000000c0: c20d 7fbe be8a 4b3e f598 a5bd 8c57 1c3e
000000d0: 51e1 643e c5c9 6ebe 0b52 ab3d cba6 29be
000000e0: c209 923e 9eed 393e fe3a f23e fb82 833e
000000f0: 3c2c d6bd cb7a 3ebd 5069 0ebe 98ce 81be
00000100: fe53 703e b8e6 b53d eb76 94be cc21 2c3e
00000110: f2a0 a43e 9c6a 203e 76e7 103e a08f b5bd
00000120: 7f33 d3be 2274 d8be b6c9 8c3e 5858 463e
00000130: 40a2 c4bb de6a aa3e 3b90 10bd 554c a9be
00000140: 6fb3 443e c53e a7bf 4813 773d 66df 30be
00000150: ea5b 84be 1d2e bbbd 8933 88be 83ec 94be
00000160: f829 9abe 0ab4 8dbe eada ad3e 5026 673e
00000170: e5f0 d33d 8a7e 053c 9978 a3be 4517 0cbe
00000180: 6073 3c3e 3d4c 34be 5fac 043f 86f9 803e
00000190: 4912 afbe 2e61 113f 3973 0abe c08b abbe
000001a0: cc10 3fbe 7055 e2bd f066 523e a82d 9b3d
000001b0: 84a5 993e ac03 123e dd51 e43c 04d7 9b3d
000001c0: 0eb1 98bf fb65 013e a0b5 f13d 22fd afbe
000001d0: b1c8 a53e ea18 5a3d 766a 693f 3725 adbd
000001e0: 04d0 2b3e 5892 323e d9bd d23d 995f 11be
000001f0: db71 823e 4de3 65bd a432 473d 2fad 35be
00000200: 5c06 443e 9ef1 a03e 26ac 5bbe 6899 ccbd
00000210: 8648 923e 9b50 293e 476b a73e f376 a1be
00000220: 0a09 083e 4af1 2ebe 76d8 7ebf c4d0 3abe
00000230: d193 36be 710c b8be 3071 89bc c28b 92be
00000240: d9b8 46be 9c54 903e 0cd8 db3d 0020 fcba
00000250: a721 c4be 4eb7 833e b43e 863e e04c 5cbc
00000260: ea37 7bbe dd84 cabe 74aa 9fbd 179e b83e
00000270: 105a 45bd f024 2a3e e347 cabd 9649 dabd
00000280: 996f 213e 0730 e43e d997 e6bc 6bf1 093e
00000290: 7abf 8f3e 15e3 113d 31bc 8ebe 2f1e a5be
000002a0: f256 01be d89a 463e e644 cabe e458 a8bd
000002b0: 6bcd 7e3e f78f 16bc 5d4e 6ebe 181d 033e
000002c0: 12c0 53be 25b4 633e 78b4 4ebf f114 713e
000002d0: e09e fd3c e778 cebe da43 bc3e ae8b 6fbe
000002e0: c60f b03e eb36 69be cc3f 8dbe e431 183e
000002f0: 33a8 19be 6a40 bf3e 5edc cdbe fc50 803e
00000300: ee1a d0bc 7b70 e83d 3ef4 a23e 96f6 b63d
00000310: 6f87 95bd d0d8 a1bc 3e6e 69be 4088 1ebf
00000320: cefc a7be fae9 263f 62de e33d 2c0d bebe
00000330: c1f7 093e 4f7a 543d c93a 2e3e 9073 ec3c
00000340: ca07 c53e 786b 643d 293a 2bbc 60b8 c3bd
00000350: dc7d 6e3d 045d fabd 6031 c8be b150 28be
00000360: b41b bd3e 6cde 89be a48e 3d3f 3d08 3cbf
00000370: f41c a63e 878e 043e 0097 793e 94ed 783e
00000380: 5d4e f4be 42f6 ae3e 5f15 a2be f473 263e
00000390: 5565 94be c00d 40bc 9a5b 21be c4b0 99bd
000003a0: fc32 3fbe c321 08be d41f 01be e6a5 9d3e
000003b0: d318 803d dfc2 9d3e 9511 ec3d 6f27 f2be
000003c0: fb25 02bd 5fec 0a3e c018 583e ef85 60be
000003d0: 6eba f03d 89a8 933e 5b26 c2be b150 9ebe
000003e0: 3c4e 703e 5010 a63c 35a6 793c aacf b83e
000003f0: 9338 673e 4cd0 6d3e 1a32 fb3c 8725 a73c
0.3387136 -0.0062383683 0.008009851 -0.11552745 0.28332308 -0.22869837 -0.056166112 -0.013335288
-0.14182897 0.09770605 -0.3612044 0.014188677 -0.22773279 -0.33338574 -0.10467613 -0.2964922
0.30315173 -0.08528525 -0.20613961 0.1114535 0.2731958 0.2575361 0.03234212 0.22471638
0.14399084 -0.3750194 0.0014115489 -0.092769295 -0.22026098 -0.379479 0.1366394 0.2283597
-0.09685358 0.3376234 -0.105048716 0.02329332 0.19622692 0.12699515 -0.5445781 -0.32903764
-0.32915893 -0.06771016 -0.073770545 -0.22712196 0.26679847 0.1032716 -0.20253216 0.37436706
-0.24907592 0.19877145 -0.08085815 0.15267771 0.22351576 -0.23319156 0.08365258 -0.16567533
0.2852307 0.1815705 0.47310632 0.25685868 -0.10457656 -0.046503823 -0.13907361 -0.2535293
0.2346954 0.08881897 -0.28996977 0.16809767 0.32154042 0.15665668 0.14150795 -0.08865285
-0.41250226 -0.42276102 0.27497643 0.19369638 -0.006000787 0.33284658 -0.0352938 -0.3306605
0.19209073 -1.3066031 0.060321122 -0.1727272 -0.25851375 -0.09139655 -0.26601818 -0.29086694
-0.30110145 -0.2767642 0.3395608 0.22573209 0.10348681 0.008147845 -0.31927946 -0.13680752
0.18403387 -0.17607208 0.5182552 0.2519037 -0.34193638 0.5678891 -0.13520516 -0.33505058
-0.18658751 -0.11051452 0.2054708 0.075770676 0.3000909 0.14259213 0.027871067 0.0760937
-1.1929033 0.12636559 0.1180222 -0.34372813 0.32379678 0.053246416 0.9117807 -0.08454364
0.1677857 0.17438638 0.10290117 -0.14196624 0.2547749 -0.056124974 0.04863228 -0.17741846
0.19143051 0.3143434 -0.21452388 -0.099901974 0.28570956 0.16534655 0.32699034 -0.31536064
0.13284698 -0.17084232 -0.99549043 -0.182437 -0.17829825 -0.35946992 -0.016777605 -0.28622252
-0.19406451 0.28189552 0.10734567 -0.0019235611 -0.38306925 0.25725788 0.26219714 -0.013446063
-0.24533048 -0.39554492 -0.07796183 0.36058113 -0.048181593 0.16615653 -0.098769926 -0.10658567
0.15765227 0.44567892 -0.028148578 0.13471 0.28075773 0.035616953 -0.27877954 -0.3224959
-0.12630823 0.19395006 -0.3950569 -0.082200795 0.24883048 -0.009189597 -0.2327208 0.12804067
-0.20678738 0.22236688 -0.80744123 0.23543145 0.030959547 -0.40326616 0.36770517 -0.23393127
0.34387034 -0.22774856 -0.27587736 0.14862782 -0.15005569 0.37353832 -0.4020719 0.25061786
-0.025403466 0.11349579 0.31826967 0.08933751 -0.073012225 -0.019756705 -0.2279596 -0.6192665
-0.32810062 0.6520077 0.111264005 -0.37119424 0.13473417 0.051874455 0.17014612 0.028863698
0.38482505 0.055766553 -0.010450878 -0.09556651 0.058225498 -0.122247726 -0.3910017 -0.16437031
0.36935198 -0.26927507 0.7404578 -0.7345007 0.32443964 0.12944995 0.24374008 0.24309379
-0.47716036 0.34172255 -0.3165693 0.1625517 -0.2898356 -0.011722028 -0.157576 -0.075044185
-0.18671793 -0.13294129 -0.12609798 0.30790633 0.06254735 0.30812737 0.11526791 -0.4729571
-0.031774502 0.13566731 0.21103191 -0.21926092 0.11754309 0.2883952 -0.37919888 -0.30920938
0.23467344 0.02027145 0.015237381 0.36095935 0.22580175 0.2322399 0.030663539 0.020403637

fc2.bias f4 [20]
00000000: f94f 98be 3a0f 8c3e e57b b2bd 82e5 2fbe
00000010: 8624 6fbe fc6a 44be 0d7c ab3d 4ef3 74be
00000020: b7b2 fc3b 3038 153d dda4 59bd 6335 0cbe
00000030: eb0b ac3a 0839 2ebe b99e d43d 5cea 5ebe
00000040: 0a06 7d3d e7cd 36be ce94 46bd 399c 4d3e
-0.29748514 0.27355367 -0.08715037 -0.17177394 -0.23353776 -0.19181436 0.0837327 -0.23920938
0.007711734 0.036430538 -0.05313574 -0.1369224 0.001312611 -0.17013943 0.103818364 -0.21769089
0.061773337 -0.17851983 -0.048481755 0.20079125

fc3.weight f4 [1, 20, 1]
00000000: 224c 8f3e 84ff 3ebe 2ddb ef3d 9f95 013e
00000010: e673 083f fa8d 113f bb70 963e e2ca edbc
00000020: 0317 003f 6f16 90be 03e7 8fbe 2042 97bd
00000030: 66ff 66be 35b3 eb3e 3871 a9bd 8033 b73f
00000040: bc65 b03e 2e72 cebe 6d6f 86be a782 34be
0.27987772 -0.18652159 0.11711726 0.12654732 0.53301847 0.56857264 0.29382882 -0.029027406
0.50035113 -0.28142115 -0.28105935 -0.07385659 -0.22558364 0.46035162 -0.08273548 1.4312592
0.34452617 -0.40321487 -0.26256886 -0.17627965
